python_ml/model.onnx (onnx, 679047 bytes, 13 tensors)

features.weight f4 [60, 36]
0.18026967 -0.18591674 0.16056035 -0.0931389 0.20216934 0.246906 0.09603013 0.04708307
0.109592676 0.21548681 -0.24580996 -0.015966441 0.15626584 0.20226142 0.066865474 -0.0076604104
0.17763805 0.24712792 -0.2394885 -0.029412236 0.16426557 -0.13584775 -0.076091 -0.14311421
-0.10624416 0.19939876 0.084672295 -0.2450093 -0.020654459 -0.16595127 0.14084078 0.2554443
0.18004061 -0.22634123 -0.12395326 -0.093211114 -0.16436505 -0.11913809 -0.13167548 -0.18175632
-0.16120745 0.1286927 0.14077093 -0.19460213 0.20290379 0.21680523 -0.04378054 0.09434001
0.1501591 0.21138541 0.11446274 -0.1909412 0.13661969 -0.2344316 -0.013914988 0.19373864
0.08409091 0.04077131 0.23758197 -0.11676373 0.1372904 -0.20505534 0.027341543 0.10956394
-0.09332256 -0.11155614 -0.10141032 -0.16339341 0.1740965 0.22414862 0.2333387 -0.14889285
-0.26256824 -0.16642493 0.048058856 0.16548868 -0.14254488 -0.1203419 0.10600813 -0.08091815
0.115365766 0.12914486 0.2066563 -0.06943044 -0.22178783 0.076613225 -0.17902485 -0.051908396
0.07816212 0.09498438 0.15834844 -0.06463789 0.020123202 -0.037604578 -0.25925866 -0.21129443
-0.084477924 0.0727146 -0.02103479 0.1404644 0.09525736 -0.25303563 0.2209668 -0.16622
0.20831543 0.016336164 -0.14119126 -0.20460692 0.17759152 0.0365981 0.24490994 0.08115184
0.12459005 0.060007624 0.21849059 0.23792572 0.24681425 0.23562913 -0.07930229 0.044335306
0.1899739 -0.16039664 -0.12545155 -0.1767214 0.04743484 0.021690125 0.29275173 -0.060870383
-0.18711673 0.17044231 0.25799513 -0.07275125 0.21724325 0.24971387 -0.11415133 -0.141645
0.063466564 0.13739975 0.14281473 -0.007484487 -0.20776428 0.0038775392 0.18155769 0.09077235
0.07261463 -0.10716735 -0.21443564 0.27798587 0.24066776 0.27684233 0.1532641 0.15980461
-0.011841391 -0.1485266 0.09302225 0.03937696 0.18734823 0.18109743 -0.13797717 -0.09978668
0.15031502 0.10873831 0.02240051 -0.21958396 0.23010823 -0.02551851 0.18158884 -0.11403005
0.013707359 0.16442499 0.14249134 0.18719812 0.28105357 0.06580455 0.2009542 0.17651854
-0.20810497 -0.04466955 -0.16377425 0.05672962 -0.24518353 -0.17816852 0.117002614 -0.2711843
0.03987675 0.19115108 -0.24949959 -0.18903978 -0.20260288 -0.0008743663 -0.028307457 -0.027813094
-0.14302863 -0.20931432 0.022501078 0.12976174 -0.15332006 0.09606645 0.082236655 0.14925222
-0.087666444 0.07899596 -0.12849554 -0.20924218 -0.18975605 0.020501787 0.061655644 0.020561017
-0.059501547 -0.1354608 -0.06805546 0.15775287 0.17396812 0.18178792 -0.25598305 0.009117618
0.012936184 0.20696281 0.10039703 -0.0013819509 -0.059600934 0.14087944 0.09065837 -0.026207553
-0.19589235 -0.021926552 0.14013402 -0.042724058 0.18223211 -0.2291433 0.11976547 0.19704878
-0.013487136 -0.1792286 0.116828494 0.073971964 0.18349323 0.018377716 0.13561949 0.14768413
-0.1929118 -0.13798769 -0.0040372927 -0.059398122 -0.11706767 -0.06683105 0.042923976 -0.0581303
-0.14932743 0.018054366 0.05294881 0.0075090653 0.1165273 0.08926313 0.15265383 -0.21814281
00000000: 9d98 383e f560 3ebe ef69 243e 9cbf bebd
00000010: 7b05 4f3e edd4 7c3e 72ab c43d 2dda 403d
00000020: 2072 e03d 93a8 5c3e 9bb5 7bbe 0ecc 82bc
00000030: 2704 203e 9e1d 4f3e c4f0 883d 2e04 fbbb
00000040: c0e6 353e 1a0f 7d3e 793c 75be eef1 f0bc
00000050: 3c35 283e ac1b 0bbe 99d5 9bbd 888c 12be
00000060: 8a96 d9bd 302f 4c3e ab68 ad3d b8e3 7abe
00000070: 8a33 a9bc 21ef 29be 9138 103e 98c9 823e
00000080: 915c 383e ffc5 67be 35db fdbd 78e5 bebd
00000090: 504f 28be acfe f3bd f0d5 06be 541e 3abe
000000a0: 9113 25be 05c8 033e 4126 103e c845 47be
000000b0: 03c6 4f3e 3102 5e3e 3953 33bd 5635 c13d
000000c0: 4fc3 193e 6b75 583e 716b ea3d 1786 43be
000000d0: 08e6 0b3e d60e 70be b1fb 63bc 6c63 463e
000000e0: db37 ac3d d1ff 263d b048 733e d321 efbd
000000f0: db95 0c3e 07fa 51be 5ffb df3c 0f63 e03d
00000100: e61f bfbd 8c77 e4bd 37b0 cfbd 9a50 27be
00000110: 5a46 323e 3787 653e 57f0 6e3e 5e77 18be
00000120: 586f 86be 4c6b 2abe 5dd9 443d dd75 293e
00000130: 49f7 11be d075 f6bd ca1a d93d 6ab8 a5bd
00000140: e344 ec3d 8d3e 043e b69d 533e 8c31 8ebd
00000150: 591c 63be 65e7 9c3d 4a52 37be e69d 54bd
00000160: 7613 a03d 2c87 c23d 1826 223e df60 84bd
00000170: 6ad9 a43c 4207 1abd 8dbd 84be 915d 58be
00000180: c302 adbd 64eb 943d 2751 acbc e6d5 0f3e
00000190: 4a16 c33d e38d 81be 1f45 623e 9335 2abe
000001a0: a450 553e 6bd3 853c 7194 10be 7a84 51be
000001b0: 8dda 353e e4e7 153d acc9 7a3e f032 a63d
000001c0: 1129 ff3d 8eca 753d ffbb 5f3e cda2 733e
000001d0: e0bc 7c3e c348 713e 3d69 a2bd f098 353d
000001e0: 8588 423e 043f 24be 5f76 00be 74f6 34be
000001f0: 094b 423d 7daf b13c 8ee3 953e 3953 79bd
00000200: 879b 3fbe 6e88 2e3e f017 843e 9bfe 94bd
00000210: 0475 5e3e feb4 7f3e 2cc8 e9bd 630b 11be
00000220: c2fa 813d 85b2 0c3e 063e 123e 6d40 f5bb
00000230: 29c0 54be 501e 7e3b 42ea 393e dbe6 b93d
00000240: fbb6 943d 8e7a dbbd 0495 5bbe 2a54 8e3e
00000250: 9c71 763e 47be 8d3e 44f1 1c3e d2a3 233e
00000260: 6502 42bc 5b17 18be 7382 be3d bc49 213d
00000270: 37d8 3f3e 9b71 393e e349 0dbe f55c ccbd
00000280: 2eec 193e 31b2 de3d 4681 b73c 9eda 60be
00000290: 7ea1 6b3e 320c d1bc 6df2 393e 9688 e9bd
000002a0: d594 603c 065f 283e 40e9 113e ddb0 3f3e
000002b0: 41e6 8f3e 89c4 863d f0c6 4d3e 47c1 343e
000002c0: 7819 55be 6bf7 36bd 70b4 27be 515d 683d
000002d0: 6411 7bbe cf71 36be 119f ef3d abd8 8abe
000002e0: ce55 233d 1cbd 433e d27c 7fbe a593 41be
000002f0: 2177 4fbe bb35 65ba 0ae5 e7bc 49d8 e3bc
00000300: 1976 12be 7e56 56be 2e54 b83c 43e0 043e
00000310: efff 1cbe 7dbe c43d b16b a83d 93d5 183e
00000320: 778a b3bd a2c8 a13d 5694 03be 9543 56be
00000330: 694f 42be 5df3 a73c a18a 7c3d 946f a83c
00000340: e5b7 73bd 3cb6 0abe a960 8bbd f889 213e
00000350: b324 323e 9d26 3a3e 3610 83be 1062 153c
00000360: 4af2 533c 0fee 533e f59c cd3d 9422 b5ba
00000370: 1c20 74bd b342 103e 18ab b93d 39b1 d6bc
00000380: 0198 48be 509f b3bc 4b7f 0f3e 6cff 2ebd
00000390: 0e9b 3a3e 8ba4 6abe 9947 f53d 28c7 493e
000003a0: 26f9 5cbc b487 37be c743 ef3d 9d7e 973d
000003b0: a6e5 3b3e dd8c 963c d6df 0a3e 823a 173e
000003c0: ac8a 45be a54c 0dbe 444b 84bb 724b 73bd
000003d0: 2dc1 efbd b8de 88bd 0dd1 2f3d 0a1a 6ebd
000003e0: 4ae9 18be c0e6 933c dae0 583d 9b0e f63b
000003f0: dda5 ee3d 97cf b63d 4951 1c3e d460 5fbe

features.bias f4 [60]
0.01302205 -0.007895522 -0.018836917 0.06755744 0.05307376 -0.011615625 0.023005618 0.042451616
-0.0071129985 -0.005019504 0.026398767 0.045346923 0.026378758 -0.012406487 0.017732983 -0.011605923
0.017114554 0.06751305 -0.028939057 -0.014880113 0.030829541 0.027909096 -0.015553415 -0.02705554
-0.02347707 0.001592508 0.0024463125 -0.007973497 0.053062834 0.036481377 0.02691117 0.021102928
-0.0027619367 -0.009284878 0.0013194595 0.041819435 0.00028634554 -0.013660993 -0.031884596 0.006980603
0.03181952 -0.0011232304 0.038951293 0.028641785 0.02260949 0.011475371 0.015835471 0.0071513657
-0.001396133 0.03140582 -0.0247816 0.040348332 0.022785129 -0.027792063 -0.0063963933 0.013212934
0.007823129 -0.029502654 -0.009666587 -0.003392125
00000000: 705a 553c 385c 01bc e14f 9abc 8e5b 8a3d
00000010: df63 593d 764f 3ebc 4776 bc3c bfe1 2d3d
00000020: 2814 e9bb a77a a4bb 3a42 d83c b2bd 393d
00000030: 4418 d83c 9444 4bbc c344 913c c526 3ebc
00000040: d233 8c3c 4844 8a3d 9a11 edbc b8cb 73bc
00000050: 3c8e fc3c 9ea1 e43c c0d3 7ebc 94a3 ddbc
00000060: fc52 c0bc b4bb d03a 5052 203b 45a3 02bc
00000070: 6a58 593d 7f6d 153d d074 dc3c 0ce0 ac3c
00000080: 9c01 35bb 9a1f 18bc b7f1 ac3a db4a 2b3d
00000090: a620 9639 5cd2 5fbc 6c99 02bd 8bbd e43b
000000a0: 2f55 023d 5c39 93ba 648b 1f3d 2da2 ea3c
000000b0: 8a37 b93c 3203 3c3c 64b9 813c 0156 ea3b
000000c0: 73fe b6ba 64a3 003d c802 cbbc 4b44 253d
000000d0: e1a7 ba3c 2eac e3bc d698 d1bb 107b 583c
000000e0: 952c 003c 8daf f1bc 9b60 1ebc 6a4e 5ebb

hidden.0.weight f4 [100, 60]
0.13942099 -0.18804854 -0.19715458 0.044941787 -0.13985966 -0.082287766 -0.030472673 0.10550805
-0.027158344 0.09460385 0.031720787 -0.0894106 -0.010396016 0.049050227 -0.16987045 -0.058812797
0.008061381 0.13793714 -0.048650037 0.11726646 0.06723326 -0.10348925 0.06320446 0.16805856
0.16065316 0.17016938 -0.0033182662 -0.13694529 -0.10734324 0.16296987 0.12923226 0.08870248
-0.081977546 0.034064446 -0.1289851 0.15878336 -0.115842395 0.0341568 0.15952708 -0.016267994
-0.08403784 -0.052767955 -0.1789964 -0.038601905 0.13761896 0.055664454 0.1481019 0.14084144
-0.14500046 -0.08208712 0.15061711 0.1654603 -0.08240742 0.024852712 -0.13296168 -0.11477048
0.04302428 -0.15261862 -0.072697565 0.0075028446 -0.00642191 0.13350846 -0.06039517 0.14676976
-0.10628334 0.15797168 -0.18399806 -0.08792232 -0.1739244 0.07466048 0.18938462 -0.09226894
-0.013223244 -0.17457238 -0.056512833 -0.106795065 0.0860364 -0.18566865 0.13756227 0.025521634
0.15310653 0.1626619 0.0025693101 -0.024091117 -0.19478524 -0.18169048 -0.07439895 -0.1771804
0.0047238288 0.1934745 -0.038978327 -0.109848775 -0.10082798 0.11469107 -0.04536999 -0.10833873
-0.13789529 -0.10698398 0.08595968 0.14395635 0.09803081 0.06867694 0.18327734 0.09267413
-0.12827934 0.17341767 -0.06802908 -0.10199568 -0.017477594 0.17808507 -0.066611305 -0.088632606
-0.07554214 -0.15618458 -0.17245042 0.113980114 0.07304861 0.002299429 -0.07548706 0.17402627
0.18298364 -0.19273631 0.12346988 -0.008679453 -0.12067546 0.1308543 0.14016856 -0.016377982
0.09192321 0.14675516 -0.03015233 0.17436928 -0.019219344 0.048651874 0.015916599 0.14414862
-0.1024617 0.0035015184 -0.028837152 -0.17679597 -0.12903279 -0.13508166 0.15269594 0.1315812
0.108953476 -0.059226934 0.09281178 0.147059 0.098285705 0.09947549 -0.16331218 0.11277936
0.11691163 -0.11726074 0.03558757 0.053181667 -0.09241477 -0.10020892 0.03702321 0.1477934
0.017435685 -0.18649885 0.019477274 0.08624136 0.08963494 -0.069483586 0.07333339 -0.07736631
0.008933095 -0.16814972 -0.12471042 0.15812363 0.20655778 -0.037967145 0.08184275 0.010777039
0.095585115 0.061302498 0.10281403 -0.0373112 0.065195635 -0.021326302 -0.19920059 -0.04658046
-0.11585817 -0.17623642 0.08208038 -0.17754154 0.003753928 -0.16365708 0.094432436 0.023024367
-0.15480217 -0.090723984 0.06121906 -0.17150146 -0.076208875 -0.14594854 -0.064759485 0.14120565
-0.12802805 0.037149876 -0.16145381 -0.08399917 0.06396515 -0.10025486 0.10316911 0.1672337
-0.028330315 -0.05200269 -0.18779898 -0.1098879 -0.071551464 -0.14031334 0.11450344 0.054337595
0.18213752 0.11342026 -0.12667118 0.019988323 0.028809251 -0.022791838 0.14085606 0.11570518
-0.09898455 -0.15017185 0.06439863 -0.10919792 0.11392293 -0.14828804 0.17644775 0.054295503
0.004293014 -0.10329284 -0.05903778 -0.0056598 0.16263276 0.08220347 0.14422882 -0.0740553
-0.124429345 0.06770447 0.09141712 -0.1022191 -0.06805126 -0.03976336 0.024380999 0.17935623
0.20175403 0.0618319 -0.16343498 -0.16553305 -0.03169049 0.17640398 -0.06930963 -0.18285738
00000000: 60c4 0e3e cc8f 40be e4e2 49be e114 383d
00000010: 5f37 0fbe 7d86 a8bd d4a1 f9bc 9b14 d83d
00000020: 2d7b debc aabf c13d a8ed 013d e81c b7bd
00000030: 0d54 2abc e4e8 483d 85f2 2dbe b0e5 70bd
00000040: e213 043c 653f 0d3e 4345 47bd 6629 f03d
00000050: 97b1 893d 2cf2 d3bd 5771 813d 8b17 2c3e
00000060: 4382 243e e240 2e3e 4577 59bb 633b 0cbe
00000070: c6d6 dbbd 93e1 263e 7655 043e a5a9 b53d
00000080: d8e3 a7bd 2987 0b3d ac14 04be 1b98 223e
00000090: c73e edbd 00e8 0b3d 115b 233e 7544 85bc
000000a0: 081c acbd 3623 58bd d54a 37be 081d 1ebd
000000b0: fceb 0c3e 6900 643d 06a8 173e bd38 103e
000000c0: 007b 14be 4b1d a8bd 5f3b 1a3e 6d6e 293e
000000d0: 39c5 a8bd ea97 cb3c 1b27 08be c90c ebbd
000000e0: 3a3a 303d 0e48 1cbe 76e2 94bd 6cda f53b
000000f0: e36e d2bb 71b6 083e ed60 77bd d04a 163e
00000100: 14ab d9bd 54c3 213e fd69 3cbe 9e10 b4bd
00000110: 3d19 32be 98e7 983d 0bee 413e 7ff7 bcbd
00000120: 4ea6 58bc 1ac3 32be 007a 67bd 5fb7 dabd
00000130: da33 b03d ec1f 3ebe 20dd 0c3e bf12 d13c
00000140: f5c7 1c3e d790 263e df61 283b bc5a c5bc
00000150: c875 47be 120d 3abe 7a5e 98bd c76e 35be
00000160: 59ca 9a3b 2e1e 463e bda7 1fbd 65f8 e0bd
00000170: e67e cebd 27e3 ea3d e2d5 39bd b2e0 ddbd
00000180: 6c34 0dbe 6b1a dbbd a10b b03d 4b69 133e
00000190: 61c4 c83d 7fa6 8c3d 0ead 3b3e efcb bd3d
000001a0: a95b 03be 6794 313e d552 8bbd 1ce3 d0bd
000001b0: 2c2d 8fbc ef5b 363e 826b 88bd 0385 b5bd
000001c0: d6b5 9abd daee 1fbe d896 30be 686e e93d
000001d0: 829a 953d 04b2 163b f698 9abd f133 323e
000001e0: 1060 3b3e ab5c 45be c7dd fc3d 4434 0ebc
000001f0: b224 f7bd abfe 053e 5988 0f3e 1e2b 86bc
00000200: 3c42 bc3d fc46 163e 0502 f7bc dc8d 323e
00000210: e371 9dbc 3047 473d 8763 823c b29b 133e
00000220: 71d7 d1bd bb79 653b e43b ecbc 010a 35be
00000230: 2c21 04be d952 0abe 535c 1c3e 39bd 063e
00000240: 0023 df3d f197 72bd 1a14 be3d a296 163e
00000250: 044a c93d ceb9 cb3d 4f3b 27be ddf8 e63d
00000260: 5d6f ef3d 6626 f0bd 46c4 113d 05d5 593d
00000270: f443 bdbd 563a cdbd a6a5 173d 2757 173e
00000280: 48d5 8e3c 8ef9 3ebe ce8e 9f3c 4f9f b03d
00000290: 8692 b73d 694d 8ebd d12f 963d 3a72 9ebd
000002a0: 1e5c 123c 712f 2cbe 2d68 ffbd 29eb 213e
000002b0: e283 533e 7083 1bbd 2c9d a73d 2e92 303c
000002c0: 21c2 c33d 5418 7b3d 2a90 d23d a1d3 18bd
000002d0: 4a85 853d 7fb4 aebc 3dfb 4bbe 27cb 3ebd
000002e0: 0c47 edbd 5277 34be c219 a83d 73cd 35be
000002f0: 7604 763b b995 27be cb65 c13d 999d bc3c
00000300: 7684 1ebe 7fcd b9bd d6c0 7a3d 149e 2fbe
00000310: 6613 9cbd 8973 15be 9fa0 84bd 3798 103e
00000320: c919 03be 782a 183d 2654 25be c207 acbd
00000330: 2900 833d 6c52 cdbd 544a d33d 503f 2b3e
00000340: fa14 e8bc c600 55bd 604e 40be e80c e1bd
00000350: 9389 92bd 4dae 0fbe c880 ea3d 1991 5e3d
00000360: 4282 3a3e e248 e83d 17b6 01be 8dbe a33c
00000370: 6101 ec3c f3b5 babc 923c 103e d6f6 ec3d
00000380: 69b8 cabd a6c6 19be 6ee3 833d 29a3 dfbd
00000390: 6d50 e93d d2d8 17be b8ae 343e f664 5e3d
000003a0: 69ac 8c3b 328b d3bd 99d1 71bd d875 b9bb
000003b0: 3489 263e 4b5a a83d b8b0 133e 4eaa 97bd
000003c0: d0d4 febd a4a8 8a3d e638 bb3d 3f58 d1bd
000003d0: 765e 8bbd e8de 22bd a9ba c73c 29a9 373e
000003e0: 9c98 4e3e 7243 7d3d 805b 27be 7f81 29be
000003f0: e3cd 01bd 3fa3 343e 35f2 8dbd f73e 3bbe

hidden.0.bias f4 [100]
-0.0058929785 0.006611796 -0.0004637431 0.013163961 0.011780428 0.0029413388 0.052120723 -0.0035078083
-0.018080272 -0.02806575 0.007091745 0.013269033 0.0140922535 -0.023503 0.044182412 0.026402844
0.006658336 0.0014766611 -0.0012183433 -0.027325954 0.011487487 -0.0115568405 0.03827075 0.0154448645
0.025515357 0.0025022805 0.031031027 0.0029256502 -0.011954909 0.008140972 -0.011053312 -0.005030982
0.002920797 -0.0032185556 -0.015486019 0.0053956113 -0.01979256 0.02000491 0.02732791 0.017700754
-0.0016640188 0.020299444 0.01670838 0.012658709 0.04281385 0.014734536 0.004608138 -0.004747575
0.001450994 0.011633615 0.0077895503 -0.011198304 -0.0021147828 -0.0123148365 -0.002412477 0.015001189
0.017259961 0.033361956 -0.0032672978 0.0014724239 0.018531898 0.04059387 0.006993348 0.0020113548
-0.022051718 0.054984152 0.014185714 0.0056321067 0.011975281 0.014596667 0.050958447 0.022303341
-0.0012508748 -0.0044861827 -0.011531906 0.014483186 0.0028247584 0.021973006 0.009418649 0.008908075
0.0020475783 0.009798954 0.015544445 0.041260947 0.048362873 0.041648787 0.044442937 -0.035674
-0.010739562 0.006486512 -0.0374503 -0.008860065 0.028599627 0.0028055734 0.014492599 0.043371737
0.026818845 -0.0016454516 -0.018116131 0.015274288
00000000: e319 c1bb c4a7 d83b 8c22 f3b9 a7ad 573c
00000010: b202 413c 7ac3 403b 8a7c 553d 42e3 65bb
00000020: 141d 94bc 25ea e5bc de61 e83b 5c66 593c
00000030: 32e3 663c 5d89 c0bc 9ef8 343d c74a d83c
00000040: 2c2e da3b 868c c13a d1b0 9fba aeda dfbc
00000050: 0336 3c3c e758 3dbc cac1 1c3d 750c 7d3c
00000060: 9505 d13c 4dfd 233b c834 fe3c 44bc 3f3b
00000070: 86de 43bc b661 053c f318 35bc f0da a4bb
00000080: d86a 3f3b 67ee 52bb 12b9 7dbc abcd b03b
00000090: 0224 a2bc 56e1 a33c c8de df3c 2c01 913c
000000a0: 351b daba 054b a63c 03e0 883c 7966 4f3c
000000b0: 935d 2f3d 2069 713c ddff 963b 8c91 9bbb
000000c0: 482f be3a eb9a 3e3c 7c3f ff3b 1779 37bc
000000d0: 2b98 0abb 2bc4 49bc a61a 1ebb 8cc7 753c
000000e0: c364 8d3c 8ca6 083d 2920 56bb 59fe c03a
000000f0: 35d0 973c c245 263d 7428 e53b efd0 033b
00000100: cea5 b4bc 1037 613d 326b 683c 898d b83b
00000110: f833 443c dc26 6f3c ceb9 503d 7fb5 b63c
00000120: 65f4 a3ba d400 93bb 52f0 3cbc e34a 6d3c
00000130: 951f 393b bc00 b43c ad50 1a3c 2df3 113c
00000140: aa30 063b cb8b 203c 21ae 7e3c 3d01 293d
00000150: 2618 463d eb97 2a3d cc09 363d e61e 12bd
00000160: fdf4 2fbc ce8c d43b 7c65 19bd ce29 11bc
00000170: c449 ea3c b6dd 373b 5e72 6d3c 90a6 313d
00000180: 32b3 db3c 32ac d7ba 4868 94bc 0241 7a3c

hidden.3.weight f4 [200, 100]
0.10033927 0.009744788 0.004625412 0.12106549 0.04320964 -0.101135 0.026442245 -0.014868936
0.040479995 0.06728658 0.09300591 0.13658847 0.12877865 -0.10841227 -0.0024021687 0.09860849
0.12643756 -0.13402039 -0.07687369 -0.09567252 0.053602487 0.110138565 -0.0059714965 -0.03286682
-0.13810371 -0.13386771 0.08819497 -0.120804586 0.057454366 0.10811981 0.10519338 -0.051405054
-0.13474882 -0.08907033 -0.0662596 0.048763905 -0.118681535 0.043034013 0.036880355 0.114709735
0.0139279235 -0.059668936 0.018546773 0.0926694 -0.02745216 0.13244049 0.051634405 -0.034912392
0.07571282 -0.05151233 0.0005510149 -0.05798681 0.06853511 0.10143115 0.066578396 -0.02586432
-0.14129192 0.06268577 -0.033201344 -0.016427204 0.1166736 -0.12639463 0.031172806 -0.13342558
0.046885483 -0.12275976 0.0036443851 -0.05238378 0.09143489 0.13547409 0.10752002 0.11464148
0.071579926 0.09052391 0.021406287 -0.021624565 0.06475564 -0.031325962 0.13957341 -0.04861807
0.00798851 0.0061875507 -0.043292906 0.030199157 0.054360442 0.123112395 -0.01229796 -0.088746555
0.06872995 0.001634346 -0.022423616 0.089886904 -0.027489845 0.031762093 0.010745244 -0.118212834
0.098685935 0.06940035 -0.009273806 -0.10589214 0.09128192 0.012204992 0.029005965 0.0662925
0.024381328 0.062233284 -0.012136488 0.12946974 -0.08728307 0.13109967 -0.0874453 0.079976305
-0.034105957 0.124459565 0.05998025 0.043231618 0.004160223 -0.07744644 0.052559 -0.032282382
-0.044804413 0.11653898 0.052942846 -0.0864691 0.03665604 -0.09902702 -0.03260624 -0.06575738
0.09187754 -0.011462731 -0.13885868 -0.104817905 0.13888048 -0.097756796 -0.07671017 -0.01418861
0.0028788045 -0.12831841 0.009395013 -0.12110119 0.11901935 -0.10473922 0.009586956 -0.12972113
-0.01956822 -0.099468485 0.13397795 -0.1466141 0.033034556 0.11772931 0.05311033 -0.120887905
-0.013898453 -0.12221832 0.009682109 0.13188504 -0.13568777 -0.080459796 -0.11481421 0.11889777
-0.08398686 0.0021957257 -0.048835624 -0.073360406 0.06731648 -0.050245125 -0.023819963 0.027072877
-0.011113219 -0.11306538 0.121820346 -0.0093921125 -0.112801544 -0.03320647 -0.12703118 0.060928732
0.056949012 -0.09806982 0.09588487 0.011411644 0.10017957 0.10883027 0.12787049 -0.06458869
0.06390958 -0.09299107 0.11919204 -0.018887412 0.06953809 0.034798678 0.11671329 0.066128224
-0.07371108 0.12879893 -0.066602565 -0.057572253 0.052628614 -0.07263541 -0.023254296 0.074111894
0.109982826 -0.12276129 -0.11754707 -0.121614635 0.09523766 0.09654445 0.06676931 -0.01838771
0.04157625 -0.05880714 0.012854985 0.14252827 -0.12286036 -0.102019854 -0.03524388 0.12630074
-0.04254215 -0.048192993 0.02657038 0.0016638715 0.0031360176 0.06787886 0.041964207 -0.13305597
0.08476205 0.09236479 -0.028111536 -0.13798885 -0.009172065 0.06737498 -0.062293977 -0.07248987
0.08573691 -0.047643106 -0.023217639 0.106600314 -0.06639953 -0.06517484 -0.0242295 -0.04677741
-0.04281302 0.13138439 0.13224927 0.020002136 0.08872833 -0.12511048 0.1304602 0.060965817
0.10016632 0.110768184 -0.008803397 -0.13184856 -0.11368457 0.08892323 -0.012284486 0.05510776
00000000: ad7e cd3d 9aa8 1f3c c590 973b 2ff1 f73d
00000010: 97fc 303d de1f cfbd 689d d83c d69c 73bc
00000020: 5ace 253d 8ccd 893d e279 be3d d9dd 0b3e
00000030: 8dde 033e 4107 debd b46d 1dbb 3ff3 c93d
00000040: d978 013e a43c 09be f46f 9dbd f4ef c3bd
00000050: 488e 5b3d 5490 e13d 8bac c3bb 5c9f 06bd
00000060: 0f6b 0dbe 9e14 09be 909f b43d 6568 f7bd
00000070: 4555 6b3d eb6d dd3d a06f d73d 1b8e 52bd
00000080: 98fb 09be 816a b6bd 1db3 87bd a9bc 473d
00000090: 4e0f f3bd 6f44 303d db0f 173d f0ec ea3d
000000a0: f231 643c 6a67 74bd 67ef 973c 74c9 bd3d
000000b0: 5ae3 e0bc 7b9e 073e 997e 533d 4c00 0fbd
000000c0: 530f 9b3d 98fe 52bd fc71 103a 9483 6dbd
000000d0: 235c 8c3d 23bb cf3d 415a 883d 69e1 d3bc
000000e0: d4ae 10be 6661 803d 22fe 07bd 5892 86bc
000000f0: 92f2 ee3d 986d 01be 1d5e ff3c b7a0 08be
00000100: fe0a 403d 7869 fbbd a3d6 6e3b 6090 56bd
00000110: 3742 bb3d b8b9 0a3e 7533 dc3d 27c9 ea3d
00000120: 7f98 923d 9a64 b93d 3d5c af3c 0026 b1bc
00000130: 9b9e 843d a74f 00bd 55ec 0e3e be23 47bd
00000140: 3de2 023c f0c0 ca3b e753 31bd 3964 f73c
00000150: 0ea9 5e3d 5a22 fc3d 627d 49bc c1c0 b5bd
00000160: 4ac2 8c3d 8d37 d63a bbb1 b7bc a016 b83d
00000170: 6232 e1bc f818 023d d20c 303c 9219 f2bd
00000180: da1b ca3d c521 8e3d 29f1 17bc fadd d8bd
00000190: 04f2 ba3d 72f7 473c eb9d ed3c 5dc4 873d
000001a0: 5abb c73c 54e8 7e3d 1fd8 46bc b793 043e
000001b0: 77c1 b2bd fe3e 063e 8516 b3bd 9eca a33d
000001c0: b0b2 0bbd a8e4 fe3d daad 753d a313 313d
000001d0: 7b52 883b 3d9c 9ebd 1b48 573d 883a 04bd
000001e0: d584 37bd fdab ee3d 99da 583d b616 b1bd
000001f0: a524 163d aece cabd 1f8e 05bd ceab 86bd
00000200: 4b2a bc3d 2ece 3bbc f830 0ebe c5aa d6bd
00000210: af36 0e3e b734 c8bd 391a 9dbd 5877 68bc
00000220: 53aa 3c3b e765 03be 8aed 193c e703 f8bd
00000230: 6bc0 f33d 8481 d6bd 9c12 1d3c 9ed5 04be
00000240: 884d a0bc 22b6 cbbd 8431 093e 0222 16be
00000250: 3e4f 073d 111c f13d 388a 593d 1494 f7bd
00000260: 56b6 63bc 994d fabd b5a1 1e3c df0c 073e
00000270: bcf1 0abe 1bc8 a4bd b623 ebbd ad80 f33d
00000280: 4e01 acbd 2ae6 0f3b dd07 48bd fb3d 96bd
00000290: 39dd 893d d5cd 4dbd 1522 c3bc f0c7 dd3c
000002a0: 3814 36bc d28e e7bd f27c f93d 60e1 19bc
000002b0: 7f04 e7bd 8203 08bd 7614 02be 6890 793d
000002c0: 5e43 693d d4d8 c8bd 495f c43d e7f7 3a3c
000002d0: f22a cd3d 68e2 de3d 7bf0 023e 1347 84bd
000002e0: 07e3 823d 1a72 bebd f51a f43d c6b9 9abc
000002f0: fc69 8e3d 0f89 0e3d 6107 ef3d 3c6e 873d
00000300: d6f5 96bd dee3 033e ed66 88bd e2d0 6bbd
00000310: 1a91 573d e0c1 94bd cb7f bebc fac7 973d
00000320: ad3e e13d 456a fbbd 85bc f0bd 1811 f9bd
00000330: f60b c33d 19b9 c53d 59be 883d d3a1 96bc
00000340: dc4b 2a3d c1df 70bd b79d 523c eef2 113e
00000350: 369e fbbd c9ef d0bd e35b 10bd fb54 013e
00000360: ad40 2ebd 0466 45bd 20aa d93c 4316 da3a
00000370: a585 4d3b 1204 8b3d a9e2 2b3d d33f 08be
00000380: ba97 ad3d c029 bd3d 2a4a e6bc f34c 0dbe
00000390: 6e46 16bc e5fb 893d f827 7fbd 9275 94bd
000003a0: d596 af3d 6b25 43bd eb32 bebc 4451 da3d
000003b0: 7afc 87bd 637a 85bd f27c c6bc ab99 3fbd
000003c0: b55c 2fbd a189 063e 5a6c 073e 85db a33c
000003d0: 33b7 b53d f61c 00be 5c97 053e 4bb7 793d
000003e0: 0024 cd3d 6eda e23d 203c 10bc 4f03 07be
000003f0: 75d3 e8bd 621d b63d de44 49bc adb8 613d

hidden.3.bias f4 [200]
0.008159765 0.0065036565 0.023120226 0.0008948481 -0.0035823009 -0.0033475943 0.011108748 -0.003626906
0.010686319 0.0064139734 0.0013597945 -0.00026082384 0.014011695 0.012894418 0.03068248 -0.0028230955
0.018303357 -0.007039641 0.024685623 -0.012768244 0.011389612 0.0008994875 0.016001007 0.023679964
-0.003049581 0.034109917 -0.031149866 0.016132804 0.016183995 0.011286692 0.036539037 0.028110778
-0.0034687012 0.0530782 0.02270943 0.0033351344 -0.024561943 0.023178885 0.028019829 0.0152695365
0.0021829782 0.038171254 0.01847598 0.008684148 0.017640814 0.03164009 -0.001385811 -0.0017317329
-0.006465456 0.027869511 0.000106804495 -0.015528719 0.045646094 0.0086699 0.0016058221 0.030612525
0.0038718765 0.011512611 0.018235426 0.018192053 -0.0118283965 0.018740278 0.022188812 0.012410644
0.014808924 -7.5229254e-05 0.00033253973 0.013976337 0.048702203 0.029397104 0.004615785 -0.021035776
0.012811041 0.0060426393 -0.0106691485 0.022004584 0.004137335 0.007602639 -0.00072170555 0.00445497
0.0008581012 0.013487834 0.00092575076 -9.920217e-05 -0.005248773 0.008279224 0.0032984032 0.007586346
0.03649583 0.0034043984 0.052011844 -0.0062856423 -0.004346338 -0.019339051 -0.0189409 0.027328718
0.00026454567 0.0018188375 0.0006979742 -0.0051751696 -0.009928932 -0.0022845448 0.009736652 0.01159457
-0.0039189355 0.00015929503 0.012754927 0.00019642945 0.0230516 0.036865413 0.004763863 0.028920341
0.018520005 0.014451001 0.022428785 0.0041612987 0.0032348053 0.044246856 -0.0040860805 0.044182494
0.037878666 0.038910236 -0.008014093 -0.010194574 -0.015575351 -1.5753063e-05 0.029659314 0.025134716
0.005809357 -0.007531156 0.016723286 0.006396341 -0.008652855 -0.0007359122 0.008647798 0.013424411
0.0042787474 0.012479524 0.0162194 0.032141797 0.04588714 0.023176711 0.053885143 0.0059100334
0.038057823 -0.012683342 0.0036394715 0.020141771 0.005385816 0.03594608 0.0065140133 0.0029814
0.00043458614 0.0066696983 0.008716448 -0.020983864 0.052503474 -0.019577032 -0.008806392 0.0011884344
0.031072147 -0.009850911 -0.017459504 -0.005124366 0.013258286 -0.013688305 0.008303429 0.024362877
0.027276767 -0.0019570612 0.004520041 0.040349707 0.014454801 0.011867203 -0.011649807 0.05745426
-0.0009857838 0.018757794 0.007610768 0.005309633 0.014218158 -0.005909256 0.02026269 0.037320476
0.00321436 -0.010377033 -0.008056147 0.041840784 -0.011846635 5.673984e-05 0.021118201 0.0075210845
0.016556107 0.00040977434 0.006662654 -0.013283549 0.005295653 0.006915867 0.007758284 0.012912782
00000000: 89b0 053c a01c d53b a166 bd3c 3d94 6a3a
00000010: 09c5 6abb 5063 5bbb 7701 363c 63b1 6dbb
00000020: ac15 2f3c 4f2c d23b 223b b23a 2fbf 88b9
00000030: 4f91 653c 1c43 533c d359 fb3c af03 39bb
00000040: ecf0 953c caac e6bb 8139 ca3c e631 51bc
00000050: 7f9b 3a3c 96cb 6b3a 8b14 833c 7cfc c13c
00000060: 7bdb 47bb d7b6 0b3d 012e ffbc f128 843c
00000070: 4c94 843c d1eb 383c f5a9 153d 9348 e63c
00000080: 2653 63bb 8768 593d 2009 ba3c 4592 5a3b
00000090: 2136 c9bc a5e1 bd3c d789 e53c 142d 7a3c
000000a0: 4c10 0f3b 7659 1c3d f05a 973c f547 0e3c
000000b0: 7883 903c 0a99 013d 1aa4 b5ba 50fb e2ba
000000c0: 2ddc d3bb 9a4e e43c 3afc df38 2b6c 7ebc
000000d0: 66f7 3a3d 320c 0e3c 737a d23a 1ec7 fa3c
000000e0: 4fbf 7d3b 649f 3c3c 7662 953c 8007 953c
000000f0: e4cb 41bc 3685 993c 50c5 b53c 0456 4b3c
00000100: 21a1 723c 66c4 9db8 ba58 ae39 02fd 643c
00000110: f67b 473d 32d2 f03c 0340 973b 3853 acbc
00000120: 67e5 513c 5501 c63b a7cd 2ebc f542 b43c
00000130: 7b92 873b 8f1f f93b d730 3dba fffa 913b
00000140: 32f2 603a 13fc 5c3c 15ae 723a c20a d0b8
00000150: e6fd abbb 95a5 073c 062a 583b e296 f83b
00000160: a77c 153d 541c 5f3b 5f0a 553d caf7 cdbb
00000170: ba6b 8ebb ee6c 9ebc f229 9bbc 7ae0 df3c
00000180: b8b2 8a39 0f66 ee3a 41f8 363a 7894 a9bb
00000190: f6ac 22bc 4db8 15bb 7a86 1f3c 27f7 3d3c
000001a0: 6a6a 80bb 6f08 2739 0bfa 503c a1f8 4d39
000001b0: b6d6 bc3c 3000 173d 2e1a 9c3b 5aea ec3c
000001c0: 44b7 973c e4c3 6c3c 92bc b73c 815b 883b
000001d0: 07ff 533b 313c 353d 87e4 85bb b4f8 343d
000001e0: a926 1b3d 5760 1f3d 8b4d 03bc 2407 27bc
000001f0: c22f 7fbc 7225 84b7 17f8 f23c 52e7 cd3c
00000200: 6b5c be3b eac7 f6bb 46ff 883c 6698 d13b
00000210: b4c4 0dbc 3bea 40ba 7eaf 0d3c 10f2 5b3c
00000220: bc34 8c3b eb76 4c3c 8cde 843c 1ea7 033d
00000230: 27f4 3b3d 16dd bd3c abb6 5c3d f4a8 c13b
00000240: 85e2 1b3d cbcd 4fbc 3384 6e3b 5b00 a53c
00000250: 807b b03b 323c 133d 8173 d53b 9763 433b
00000260: 2ad9 e339 7c8d da3b 6fcf 0e3c 5ae6 abbc
00000270: e20d 573d 0360 a0bc af48 10bc 3ec5 9b3a
00000280: 048b fe3c b765 21bc 3c07 8fbc 4cea a7bb
00000290: 4839 593c ea44 60bc 1b0b 083c a894 c73c
000002a0: 8773 df3c 0a42 00bb da1c 943b bc45 253d
000002b0: d4d3 6c3c a86e 423c d5de 3ebc 2855 6b3d
000002c0: 6a35 81ba f2a9 993c c063 f93b 6efc ad3b
000002d0: 47f3 683c 6fa2 c1bb f1fd a53c 5bdd 183d
000002e0: 03a8 523b 6e04 2abc eefd 03bc 3e61 2b3d
000002f0: 6318 42bc f0fb 6d38 1400 ad3c 6e73 f63b
00000300: aca0 873c fbd6 d639 6552 da3b 3ea3 59bc
00000310: 2887 ad3b 7f9e e23b 3439 fe3b 2290 533c

hidden.6.weight f4 [300, 200]
0.056825034 -0.070092924 -0.064928085 0.08316818 -0.008804793 -0.0017057367 -0.012863751 -0.10021276
0.036284063 0.0326265 -0.044720445 0.03393453 -0.045428272 -0.07851639 0.04674047 -0.024247412
-0.08664396 -0.0605505 0.065853104 -0.10136685 0.09446453 -0.06867392 0.028343633 0.050139412
0.021344848 -0.095088966 0.069307715 0.08624072 -0.0142509425 0.0211016 0.028007887 0.013402839
0.09297487 -0.024205605 0.1089845 -0.017874908 0.07600989 0.09850612 0.04868044 -0.011739262
-0.07776663 0.097584195 0.02939975 0.018800955 0.09860109 0.058689784 0.03508953 -0.05469717
-0.094315924 0.05579514 0.08180613 0.091375455 -0.039356526 -0.0033125388 0.07537839 0.076928906
-0.10980633 -0.06879351 0.052741498 0.06197791 0.06829086 0.008358675 0.0399653 -0.06716928
-0.08490494 -0.001887092 0.04324926 0.053325772 0.11836764 0.10781924 0.088637955 -0.07632145
-0.10967957 -0.05012749 0.08725581 -0.06678289 0.014580049 -0.022395406 0.05706729 0.08800208
0.0047566798 -0.025163295 0.05992773 0.05082319 -0.035595123 0.11216789 -0.057454713 0.020591557
-0.060220104 -0.022016976 0.0601881 0.077934556 0.108472586 -0.018395413 0.08470134 -0.031161314
-0.03080291 0.10457549 0.09479619 0.105533145 -0.098201714 -0.08988616 -0.073421836 -0.03812893
0.030964222 -0.09354411 -0.008272948 -0.046853017 0.094882116 0.069200315 -0.06052395 0.051160146
0.051575746 0.049609616 0.059429184 0.0144036785 0.08150248 -0.037150886 -0.047180776 0.016577829
0.08275161 0.0048782364 -0.059663244 0.078326255 -0.07123581 -0.007073454 -0.039020088 0.02558632
-0.09967763 -0.104287215 0.0083904015 -0.097726375 0.026685944 0.016701361 -0.047095105 0.07033612
-0.049092673 -0.06994588 0.02525879 0.029791182 -0.04209835 0.028863462 0.028016519 -0.06908141
-0.024131296 -0.06412408 -0.03328559 0.02759246 -0.009557278 -0.0031780808 -0.0048523834 -0.00097103085
0.023673553 -0.10587127 0.07183131 -0.0693494 -0.05051408 0.038511775 -0.0180974 0.020889858
-0.03861201 0.0063247434 0.06987402 0.04992108 -0.082501195 0.06626313 0.08655711 -0.020088553
0.10876789 0.07460056 -0.0739122 0.050894182 -0.0372068 0.07151148 -0.008926279 -0.081502184
-0.03934443 -0.053078033 0.044003505 0.024620498 0.037689757 -0.03709308 0.02194328 -0.029289875
-0.08444803 0.035513483 -0.039261475 0.10296144 -0.06630815 -0.100750506 0.017089795 -0.098557174
0.05459378 0.084325455 0.10961264 -0.0029928484 0.012178257 -0.043735757 -0.04585305 0.005632511
0.115029745 0.0054502347 -0.013385234 0.0088559175 -0.028419051 -0.0062196073 0.103260115 -0.092915475
-0.01675262 -0.08342157 0.03624275 0.01768697 -0.077502996 -0.055871952 0.094727926 0.043087784
0.015501267 0.03547345 0.08901196 -0.094063126 -0.05551566 0.073295854 -0.06878541 -0.071813256
-0.10243092 -0.067955695 0.044327877 -0.009194837 0.05136943 0.07610031 -0.08638593 0.02093184
-0.0742669 0.072027236 -0.015027771 -0.0054109576 0.07497672 -0.08612644 0.007816419 0.05648931
0.054849923 -0.031918913 0.090529315 -0.011444572 0.09332036 0.009599395 0.05480332 0.051544283
-0.016551163 0.029449256 0.012788704 -0.09007731 -0.014506873 -0.0056505813 0.037461706 -0.024482261
00000000: 5ec1 683d e18c 8fbd 04f9 84bd 1454 aa3d
00000010: fa41 10bc 0793 dfba 7bc2 52bc 593c cdbd
00000020: 999e 143d 5da3 053d c92c 37bd effe 0a3d
00000030: ff12 3abd 33cd a0bd ef72 3f3d 82a2 c6bc
00000040: 6372 b1bd cd03 78bd fedd 863d 6c99 cfbd
00000050: 9f76 c13d eaa4 8cbd e830 e83c fc5e 4d3d
00000060: 64db ae3c 01be c2bd 34f1 8d3d f99e b03d
00000070: c97c 69bc 43dd ac3c cc70 e53c 9597 5b3c
00000080: 9c69 be3d d54a c6bc 4433 df3d 666e 92bc
00000090: 13ab 9b3d 94bd c93d 2465 473d 0956 40bc
000000a0: 1c44 9fbd 39da c73d bfd7 f03c 7604 9a3c
000000b0: 5eef c93d b364 703d 0aba 0f3d 240a 60bd
000000c0: b528 c1bd 7289 643d f989 a73d 0e23 bb3d
000000d0: 4f34 21bd 2e17 59bb fc5f 9a3d e78c 9d3d
000000e0: 24e2 e0bd 9de3 8cbd 7807 583d 8ddc 7d3d
000000f0: 14dc 8b3d d3f2 083c a8b2 233d 0c90 89bd
00000100: a4e2 adbd 4d58 f7ba 2326 313d 206c 5a3d
00000110: bc6a f23d 55d0 dc3d d187 b53d 6c4e 9cbd
00000120: af9f e0bd 7c52 4dbd 2db3 b23d 78c5 88bd
00000130: 28e1 6e3c 9276 b7bc 64bf 693d 6f3a b43d
00000140: ecdd 9b3b 4123 cebc c876 753d fa2b 503d
00000150: 31cc 11bd 47b8 e53d a255 6bbd a0af a83c
00000160: 5ba9 76bd f25c b4bc cc87 763d 279c 9f3d
00000170: e026 de3d fab1 96bc e577 ad3d 0346 ffbc
00000180: 6256 fcbc ad2b d63d 8124 c23d c321 d83d
00000190: fb1d c9bd 3c16 b8bd 305e 96bd 152d 1cbd
000001a0: aea8 fd3c 0e94 bfbd 428b 07bc f3e8 3fbd
000001b0: 8e51 c23d e5b8 8d3d f6e7 77bd 4d8d 513d
000001c0: 1741 533d 7433 4b3d 046c 733d 68fd 6b3c
000001d0: c6ea a63d 872b 18bd a140 41bd 3ace 873c
000001e0: ad79 a93d 9dd9 9f3b 7261 74bd 8469 a03d
000001f0: 15e4 91bd 6fc8 e7bb 87d3 1fbd 679a d13c
00000200: c923 ccbd 8994 d5bd e577 093c c424 c8bd
00000210: 7b9c da3c 4bd1 883c cce6 40bd 620c 903d
00000220: 6615 49bd c93f 8fbd 86eb ce3c a30c f43c
00000230: 526f 2cbd 1173 ec3c e682 e53c 8e7a 8dbd
00000240: ffae c5bc 7c53 83bd 7956 08bd 9509 e23c
00000250: 2196 1cbc 5947 50bb be00 9fbb c78c 7eba
00000260: 0aef c13c 09d3 d8bd 4b1c 933d 0f07 8ebd
00000270: dae7 4ebd 86be 1d3d 0041 94bc 3521 ab3c
00000280: a127 1ebd cb3f cf3b 1c1a 8f3d 0c7a 4c3d
00000290: 63f6 a8bd f7b4 873d db44 b13d c090 a4bc
000002a0: b3c1 de3d 2ec8 983d 485f 97bd 6b76 503d
000002b0: 2866 18bd 9c74 923d 873f 12bc 9eea a6bd
000002c0: a027 21bd 5a68 59bd 053d 343d edb0 c93c
000002d0: 9360 1a3d eaee 17bd 65c2 b33c 52f1 efbc
000002e0: 17f3 acbd 9676 113d a4d0 20bd 73dd d23d
000002f0: 91cc 87bd 4856 cebd e6ff 8b3c 58d8 c9bd
00000300: ba9d 5f3d d3b2 ac3d 987c e03d aa23 44bb
00000310: 5087 473c 4424 33bd 68d0 3bbd ed90 b83b
00000320: b794 eb3d e297 b23b be4d 5bbc 6918 113c
00000330: 12cf e8bc d9cd cbbb 0a7a d33d 784a bebd
00000340: ca3c 89bc eed8 aabd 4773 143d 44e4 903c
00000350: e4b9 9ebd fdd9 64bd b700 c23d d17c 303d
00000360: 07f9 7d3c 9c4c 113d e74b b63d 2ba4 c0bd
00000370: 6464 63bd 231c 963d 5ddf 8cbd d412 93bd
00000380: 4dc7 d1bd 5b2c 8bbd 2691 353d f1a5 16bc
00000390: c068 523d 7bda 9b3d 1beb b0bd 4079 ab3c
000003a0: 3f19 98bd 0483 933d 0a37 76bc 674e b1bb
000003b0: 658d 993d 0f63 b0bd 7010 003c 5661 673d
000003c0: 50aa 603d 68bd 02bd 6f67 b93d 0482 3bbc
000003d0: bf1e bf3d c846 1d3c 7279 603d 1920 533d
000003e0: 4e96 87bc 913f f13c b687 513c 747a b8bd
000003f0: 3cae 6dbc 8328 b9bb 7271 193d 068f c8bc

hidden.6.bias f4 [300]
0.026624035 -0.005686619 -0.00599876 -0.0017419484 0.0052185766 0.024827108 0.0072502587 -0.0078007313
0.0031766247 0.037520386 0.017346935 0.0020949952 0.026196614 -0.0025392172 -0.0067630494 0.030281655
0.0043058433 0.030064406 -0.0068799397 -0.003121763 0.012873167 0.028048413 0.0390706 0.03236969
0.025446078 0.040691912 -0.00046873043 0.016189352 -0.00576934 0.034226306 0.0013263985 0.03459401
0.012148926 -0.004076991 0.0065292097 0.007926677 0.008976336 0.027716503 -0.00082698325 0.017001217
0.038923 -0.0021362007 0.009983174 0.01577981 -0.004253576 0.00043224398 0.03501223 0.0313973
0.0013298234 0.040770262 -0.00051888736 0.009417165 0.004179994 -0.0039862683 -0.00861589 0.0030819466
0.05122572 -0.004635324 0.0075871637 0.032087296 0.021218961 0.0010373808 0.0008583132 0.00989333
-0.00574008 0.020364814 -0.00012972341 0.018107275 0.011354091 -0.008285083 0.0128524 -0.007842336
-0.004370979 -0.0031484456 0.0037654908 0.009913127 0.0124097895 -0.00877335 0.0037680336 0.04863198
0.00045432232 0.027371548 0.027255349 -0.0025988773 0.011294414 -0.0060955887 -0.00042861197 0.015195396
0.015322704 0.0062601375 0.0047572483 0.0024445115 0.016100943 -0.011350401 -0.0024314604 -0.0014211838
-0.023534155 0.0015098006 0.0018599762 -0.0014575876 0.030131605 0.042215973 -0.0013111642 0.025352385
-0.0017777443 0.04098187 0.006535851 -0.0035749204 0.033524252 0.016085537 0.0050309896 0.000762735
0.0016190499 0.036426127 0.042978227 -0.010303912 0.0023130197 -0.018419955 -0.0058711995 0.030606123
0.0018425607 0.013976246 0.02673838 0.003929447 -0.014876034 -0.0048130816 -0.0049929894 0.0027156975
0.039867476 0.027809944 0.002369786 -0.01161928 -0.0007903984 9.036461e-05 0.040030923 0.0005658302
0.01645154 0.029694222 0.011982989 0.015160494 0.029418318 -0.0012139211 0.0075099845 0.004589432
0.020706603 0.009612296 0.012315935 0.003820442 0.008631303 0.00050124945 0.043353304 0.017686252
-0.0018874033 -0.006877831 0.023711361 0.0035016916 0.010598894 0.01290899 -0.0076776817 0.0050934246
-0.009333902 0.02772 0.023945708 0.0003848023 0.008508693 0.01693823 -0.004435341 0.017959343
-0.0072627664 0.019043438 -0.002270829 0.04438666 0.030490926 0.0027654646 -0.007695374 0.0013135822
0.0022930684 0.008637931 -0.010375981 0.003037864 -0.0056906324 0.020410638 0.0075672828 -0.001418387
0.010493836 0.046602745 -0.002959669 -0.0013860066 0.01311128 0.010703569 0.016536972 0.0077279056
-0.0023605723 0.012119972 -0.018047633 0.032917272 -0.005303262 0.02324174 0.01532933 0.02765065
0.021375105 0.013999642 -0.0049492554 -0.0031238678 0.035633244 -0.00073775323 0.030723315 0.04001462
0.028820984 0.030017477 -0.012616193 0.0044158604 -0.011358831 -0.00041161955 0.004974707 0.014817827
0.016182957 -0.0010126815 0.021764247 0.037438583 -0.012738306 0.0030914866 -0.0030168048 0.02294001
0.040278316 -0.0007362956 -0.004063175 0.041753553 0.017651208 0.009837072 0.007195401 -0.0022343956
0.013488103 0.038000546 -0.0020897163 0.00031597473 0.008008654 -0.00741222 0.007901151 -0.0027200633
-0.008716471 0.04230418 0.0016786669 0.014020962 0.0062024347 0.02898274 0.026621198 0.016818075
-0.013044025 0.029102882 0.026925035 0.037461642 -0.00017633823 4.195119e-05 0.0015452455 0.02866307
00000000: a61a da3c d156 babb 3f91 c4bb 1752 e4ba
00000010: 9800 ab3b 3862 cb3c 9493 ed3b 479d ffbb
00000020: eb2e 503b faae 193d 291b 8e3c 304c 093b
00000030: 489a d63c ff68 26bb 929c ddbb 3c11 f83c
00000040: 0818 8d3b a149 f63c 1e71 e1bb 7e96 4cbb
00000050: fae9 523c c9c5 e53c 7e08 203d 1496 043d
00000060: 4b74 d03c 90ac 263d efbf f5b9 889f 843c
00000070: bb0c bdbb e230 0c3d 8cda ad3a 73b2 0d3d
00000080: 4a0c 473c 4898 85bb fbf2 d53b e5de 013c
00000090: 7b11 133c b80d e33c e8c9 58ba 2346 8b3c
000000a0: b96d 1f3d 80ff 0bbb 7790 233c a944 813c
000000b0: 9561 8bbb ce9e e239 fc68 0f3d 759a 003d
000000c0: 784d ae3a b8fe 263d f105 08ba 744a 1a3c
000000d0: 55f8 883b 3e9f 82bb a929 0dbc 7cfa 493b
000000e0: 10d2 513d eae3 97bb be9d f83b f86d 033d
000000f0: 63d3 ad3c b9f8 873a 6c00 613a a217 223c
00000100: 4817 bcbb 1cd4 a63c 5d06 08b9 b555 943c
00000110: 8206 3a3c 28be 07bc df92 523c 247d 00bc
00000120: 6e3a 8fbb 2756 4ebb 74c6 763b ab6a 223c
00000130: 6e52 4b3c 19be 0fbc 1df1 763b 5432 473d
00000140: 1c32 ee39 4c3a e03c 9c46 df3c ed51 2abb
00000150: 350c 393c 81bd c7bb 53b7 e0b9 1cf6 783c
00000160: 140c 7b3c d721 cd3b b1e2 9b3b 1934 203b
00000170: 20e6 833c 08f7 39bc 2359 1fbb 0447 baba
00000180: b3ca c0bc 80e4 c53a 72ca f33a 860c bfba
00000190: 8ed6 f63c a8ea 2c3d 5fdb abba ceaf cf3c
000001a0: 3303 e9ba 9bdc 273d b12a d63b 3649 6abb
000001b0: ba50 093d d1c5 833c 00db a43b 48f2 473a
000001c0: 4d36 d43a 9033 153d f009 303d bdd1 28bc
000001d0: 0896 173b 72e5 96bc 3163 c0bb b1b9 fa3c
000001e0: 1482 f13a a0fc 643c 720a db3c 97c2 803b
000001f0: 9cba 73bc 0eb7 9dbb 3b9c a3bb d8f9 313b
00000200: 144c 233d aed1 e33c 694e 1b3b cb5e 3ebc
00000210: bd32 4fba 2182 bd38 77f7 233d 3954 143a
00000220: 61c5 863c 4c41 f33c 4c54 443c b863 783c
00000230: affe f03c 6f1c 9fba 5116 f63b f262 963b
00000240: e5a0 a93c e47c 1d3c c7c8 493c 6160 7a3b
00000250: 4f6a 0d3c 4866 033a 3c93 313d c2e2 903c
00000260: bf62 f7ba 6e5f e1bb 543e c23c a37c 653b
00000270: fca6 2d3c 3a80 533c 1095 fbbb bee6 a63b
00000280: 39ed 18bc 0e15 e33c ca29 c43c 4abf c939
00000290: 0c68 0b3c 0bc2 8a3c 5656 91bb 791f 933c
000002a0: 80fc edbb fc00 9c3c 30d2 14bb c9ce 353d
000002b0: 1bc8 f93c cc3c 353b 7a29 fcbb 812c ac3a
000002c0: 4e47 163b 1c86 0d3c 0500 2abc e716 473b
000002d0: 7c78 babb 3634 a73c f8f6 f73b 2ce9 b9ba
000002e0: 57ee 2b3c 85e2 3e3d 02f7 41bb aaaa b5ba
000002f0: b2d0 563c 065e 2f3c 8b78 873c 5f3a fd3b
00000300: d5b3 1abb d992 463c a1d8 93bc 43d4 063d
00000310: fcc6 adbb 7665 be3c df27 7b3c 9e83 e23c
00000320: d81a af3c c15e 653c 5d2d a2bb ceb9 4cbb
00000330: 2af4 113d c865 41ba 76af fb3c 5fe6 233d
00000340: fc19 ec3c 36e7 f53c 26b4 4ebc ecb2 903b
00000350: 641a 3abc a4ce d7b9 de02 a33b 79c6 723c
00000360: 1f92 843c f4bb 84ba ef4a b23c 3359 193d
00000370: 54b4 50bc 8a9a 4a3b 96b5 45bb b0ec bb3c
00000380: e0fa 243d f603 41ba 6224 85bb c605 2b3d
00000390: 4499 903c ac2b 213c 66c7 eb3b f06e 12bb
000003a0: 34fd 5c3c 76a6 1b3d 9ff3 08bb 69a9 a539
000003b0: bb36 033c 35e2 f2bb d473 013c 1743 32bb
000003c0: 87cf 0ebc 2647 2d3d b706 dc3a 2db8 653c
000003d0: cb3d cb3b 366d ed3c b314 da3c 0fc6 893c
000003e0: 9bb6 55bc 2b69 ee3c e491 dc3c 6171 193d
000003f0: 6fe7 38b9 bff4 2f38 d689 ca3a d1ce ea3c

hidden.9.weight f4 [200, 300]
-0.0059585315 0.030944865 0.08896368 0.083480164 -0.07827259 -0.08874273 0.056168996 0.07818198
0.07439555 0.06671224 0.07691918 -0.044793576 0.07365883 -0.08341239 -0.03216754 -0.038150974
0.06261724 -0.0018368767 -0.088939644 0.046231177 -0.057100337 0.09613717 -0.06616718 -0.050376166
0.061265294 -0.013234675 0.07969281 0.00037901802 0.014119582 -0.06964648 -0.10751623 0.016112056
0.07547612 -0.05524003 -0.0839433 -0.05870164 -0.075715736 -0.10210542 -0.028415913 -0.057081994
0.08429553 0.041815743 0.08607213 0.08411336 -0.100474864 0.046973985 -0.001821164 0.013684453
-0.07074076 -0.05084375 -0.024734857 -0.008324156 -0.030773303 -0.029958379 0.063115895 -0.093013264
-0.12881953 0.0034633148 -0.009653551 -0.10843117 -0.09997312 -0.11025683 -0.049625393 -0.060844485
0.08717633 -0.060602043 0.046832267 -0.1115185 -0.025818415 -0.07587933 0.073267676 -0.008487539
-0.018221077 0.012812918 0.07172464 -0.054883003 0.05864216 0.06057069 -0.03167129 0.06913447
-0.003933436 0.08096275 0.015095238 0.10065334 -0.0777714 0.037394304 0.029115442 0.08212634
-0.06323123 -0.06384587 -0.053342585 0.035730988 0.015660297 -0.021871507 -0.07238725 -0.0084111765
0.08703104 0.1002934 0.1016332 0.100151405 -0.02034105 0.056519385 -0.03486078 0.051259123
0.07744406 -0.027168488 0.00076560385 0.07011843 -0.008231284 -0.030887945 -0.04455552 0.013451696
0.02316 -0.040241584 -0.03426978 0.06849572 -0.019264923 0.028625062 0.09548513 -0.10462577
0.10725667 0.02229565 -0.036015626 -0.057043064 0.012512636 0.09743358 0.05138074 -0.019738508
-0.09141889 -0.0193241 0.0125217885 0.06824866 -0.08042312 -0.09614677 -0.09488332 0.036016747
0.054936744 0.03800668 0.03424504 -0.05390515 -0.110454 0.09664947 -0.08933586 -0.05299041
0.028120829 -0.08716836 0.079016365 0.08990237 -0.0580943 0.081582256 -0.044698313 0.045977954
-0.037592333 0.05218696 -0.06211243 0.10330989 0.10173383 -0.08486865 -0.07635578 -0.09844977
-0.08824294 0.08752096 0.08045107 -0.040871512 -0.04160778 0.092546344 0.03367952 -0.06251531
-0.045412887 -0.008512976 -0.017407216 0.02598357 0.031724215 -0.10438651 0.08281767 0.064742
-0.04525398 0.082897656 0.1118773 -0.07289652 -0.028948994 -0.08341319 0.1072938 0.095516235
-0.008038908 -0.051217474 0.10959883 0.026925897 0.08841415 -0.0308173 -0.10960037 0.025213828
0.101284444 -0.099368624 0.031782873 -0.050580103 -0.071476646 -0.08816183 0.026623944 0.058103673
0.032255713 -0.08927141 0.048767637 -0.06917128 -0.020698177 0.0059701395 -0.036572166 -0.03018603
0.023565305 0.096222624 0.09583536 -0.017508375 -0.09773333 0.02534095 0.09453924 -0.09559303
-0.07430419 0.022982508 -0.07345189 0.083371155 -0.10197009 0.08432859 0.062362578 0.03028397
0.06003982 0.09014504 -0.080359675 -0.06363161 0.005274569 -0.09114095 0.06223722 0.008142559
-0.09700456 -0.10060533 -0.018078672 0.092148125 0.020989148 0.02100833 0.100114316 -0.008313561
-0.10629493 0.040504225 0.016712658 -0.035329916 0.087424465 -0.048432793 0.0766362 -0.05777702
0.006625104 -0.033712737 -0.088152006 -0.077473715 -0.085888416 -0.1138962 0.09869577 0.02503434
00000000: c93f c3bb 1680 fd3c 9732 b63d a6f7 aa3d
00000010: 614d a0bd c0be b5bd 7611 663d e01d a03d
00000020: b25c 983d 6da0 883d ce87 9d3d 7879 37bd
00000030: 71da 963d 1dd4 aabd 1cc2 03bd 3244 1cbd
00000040: 783d 803d 5bc3 f0ba fd25 b6bd e75c 3d3d
00000050: 0be2 69bd 91e3 c43d a982 87bd 3d57 4ebd
00000060: 51f1 7a3d 40d6 58bc fc35 a33d f0b6 c639
00000070: d255 673c d0a2 8ebd 7831 dcbd 6efd 833c
00000080: 3993 9a3d 5f43 62bd 77ea abbd 2271 70bd
00000090: da10 9bbd a51c d1bd 7dc8 e8bc cfce 69bd
000000a0: 23a3 ac3d fc46 2b3d 9646 b03d a043 ac3d
000000b0: c4c5 cdbd cb67 403d 20b4 eeba c234 603c
000000c0: 88e0 90bd 8941 50bd c1a0 cabc 0a62 08bc
000000d0: 4b18 fcbc 466b f5bc e842 813d bd7d bebd
000000e0: 44e9 03be c8f8 623b ed29 1ebc 2911 debd
000000f0: b5be ccbd 55ce e1bd ff43 4bbd 1138 79bd
00000100: 8189 b23d d939 78bd 31d3 3f3d d063 e4bd
00000110: 2481 d3bc 9f66 9bbd 5d0d 963d 520f 0bbc
00000120: 5e44 95bc 46ed 513c 5ee4 923d 00cd 60bd
00000130: c332 703d f918 783d c1b9 01bd 5f96 8d3d
00000140: 0de4 80bb cccf a53d 0452 773c 5723 ce3d
00000150: 9d46 9fbd c52a 193d 8283 ee3c db31 a83d
00000160: 607f 81bd a0c1 82bd c17d 5abd a85a 123d
00000170: 064a 803c e02b b3bc c43f 94bd 08cf 09bc
00000180: 543d b23d a066 cd3d 1125 d03d 2e1c cd3d
00000190: 46a2 a6bc df80 673d 2dca 0ebd 16f5 513d
000001a0: fe9a 9e3d 7390 debc ceb2 483a 409a 8f3d
000001b0: 82dc 06bc b708 fdbc d97f 36bd 8164 5c3c
000001c0: 0aba bd3c 5cd4 24bd 785e 0cbd 7c47 8c3d
000001d0: 79d1 9dbc 1b7f ea3c b58d c33d 0946 d6bd
000001e0: 63a9 db3d 5ea5 b63c 1f85 13bd fda5 69bd
000001f0: cd01 4d3c 428b c73d 9c74 523d a7b2 a1bc
00000200: d439 bbbd 934d 9ebc 3028 4d3c f4c5 8b3d
00000210: e0b4 a4bd 99e8 c4bd 3052 c2bd 4c86 133d
00000220: 5a05 613d e4ac 1b3d 8744 0c3d a6cb 5cbd
00000230: b535 e2bd 28f0 c53d b8f5 b6bd 790c 59bd
00000240: a75d e63c 5385 b2bd 55d3 a13d bc1e b83d
00000250: 4af4 6dbd 9914 a73d 9415 37bd 6153 3c3d
00000260: 6bfa 19bd fec1 553d 9a69 7ebd 2394 d33d
00000270: d459 d03d 9dcf adbd 6b60 9cbd 08a0 c9bd
00000280: b7b8 b4bd 303e b33d 88c3 a43d e368 27bd
00000290: eb6c 2abd f088 bd3d 89f3 093d 0708 80bd
000002a0: dd02 3abd 027a 0bbc 9499 8ebc 7fdb d43c
000002b0: 40f1 013d 98c8 d5bd 509c a93d 7497 843d
000002c0: 3d5c 39bd 3fc6 a93d ed1f e53d c54a 95bd
000002d0: 7126 edbc 89d4 aabd dabc db3d 049e c33d
000002e0: a0b5 03bc 6ac9 51bd 5a75 e03d b393 dc3c
000002f0: 7a12 b53d 9074 fcbc 2976 e0bd 3b8d ce3c
00000300: 386e cf3d c781 cbbd c22e 023d 152d 4fbd
00000310: 5962 92bd 318e b4bd 751a da3c 1efe 6d3d
00000320: 911e 043d eed3 b6bd 93c0 473d aca9 8dbd
00000330: 398f a9bc 29a1 c33b b2cc 15bd b148 f7bc
00000340: 070c c13c 5e10 c53d 5445 c43d b96d 8fbc
00000350: 6a28 c8bd d397 cf3c ca9d c13d 47c6 c3bd
00000360: cc2c 98bd d045 bc3c f26d 96bd 7fbe aa3d
00000370: b2d5 d0bd 78b4 ac3d e76f 7f3d 1716 f83c
00000380: 50ec 753d f69d b83d 9d93 a4bd 4a51 82bd
00000390: 4bd6 ac3b 1ba8 babd 75ec 7e3d 5e68 053c
000003a0: 54aa c6bd 2b0a cebd b919 94bc 28b8 bc3d
000003b0: 6ff1 ab3c a919 ac3c bc08 cd3d 9a35 08bc
000003c0: 28b1 d9bd c2e7 253d fce8 883c 1ab6 10bd
000003d0: 990b b33d 7761 46bd 71f3 9c3d 99a7 6cbd
000003e0: 6717 d93b 5e16 0abd 0a89 b4bd 8aaa 9ebd
000003f0: 44e6 afbd 6942 e9bd 0221 ca3d d114 cd3c
