python_ml/model.onnx (onnx, 11065 bytes, 9 tensors)

features.weight f4 [30, 36]
0.17666546 -0.1269924 0.30528197 -0.13370256 0.16755943 0.12226717 0.267237 0.1956504
-0.017432999 -0.12097767 0.07743379 0.3224137 -0.034310088 0.18613967 -0.042629827 0.08304017
0.18870232 0.21956076 0.04041296 0.0574499 0.07109101 0.2448497 0.31330827 -0.036126696
0.23917499 0.29762858 -0.19871455 -0.27676868 0.09908504 -0.053654283 0.05099321 0.12714009
0.09274172 -0.16401379 -0.15428658 0.080642365 0.1660734 0.12530865 0.1319698 0.07141946
-0.16059177 0.13552989 0.17145295 0.12443582 0.025009697 -0.32556996 -0.0046861363 -0.21235462
0.23569404 0.15563022 -0.037263796 0.10486972 -0.2719304 -0.2988345 -0.19970793 0.12392336
0.16142917 -0.094979025 -0.07891488 0.04856723 0.0109081045 0.05223189 0.22909296 -0.19630028
-0.33290213 0.10734714 0.25126162 0.23259902 -0.0515369 -0.11001995 -0.08505782 -0.22878903
-0.2511999 -0.02236752 -0.047299176 -0.065053515 -0.16214105 -0.23188873 0.15906255 0.03335704
-0.06427592 0.24545395 -0.007629636 0.077939585 0.25483614 0.09441929 -0.016949456 0.12597345
0.14408451 0.06244236 -0.29262152 0.14351216 -0.17783144 0.12230604 -0.08429311 0.103183955
0.05221879 -0.13531691 0.1551237 -0.22915329 -0.24923545 0.0637698 0.25733015 -0.044169106
0.22229485 -0.09373945 0.08507765 -0.1730492 0.02021452 -0.10943948 -0.16077384 -0.17345029
0.14666732 -0.18572637 -0.048499748 0.18702209 0.26908153 0.019202257 -0.2622035 0.23390621
0.27101657 0.2010379 -0.1261905 -0.11319972 0.15665534 -0.06560302 -0.25080478 0.0079826135
-0.015008932 0.019155053 -0.0027446428 -0.25649542 -0.26857013 -0.15227933 -0.17725742 -0.12474569
-0.25909862 0.071718015 -0.15060407 -0.18893826 -0.112385966 0.14595926 0.23330621 0.052637413
0.3300168 -0.10339024 0.13581987 0.2013517 0.109248556 0.176303 0.03691257 0.0006243055
0.12918971 0.31200367 0.10648219 -0.018925896 0.0032521952 -0.17797782 -0.06266092 -0.24233282
-0.041545514 0.19640437 0.317107 0.05264033 0.09742612 0.017013943 -0.2184237 0.28139448
0.034862727 -0.16436762 -0.086726345 -0.026161902 0.042957805 0.07816965 0.02963678 0.2894596
-0.18576804 -0.22369945 -0.23109344 0.09958185 0.26299223 0.2642722 0.01684916 0.010582524
0.19046418 0.16196804 -0.21876363 -0.057284154 -0.2601861 0.2942098 0.19398104 -0.07735978
-0.049355313 0.01391306 0.24815243 0.1665119 -0.22606741 -0.044895634 0.112050384 0.26610118
-0.09199683 0.1605673 0.03612757 -0.1126266 0.11175373 0.04100281 -0.15995881 0.02858241
0.02291584 -0.016074795 0.08313645 -0.14772114 -0.104612604 -0.06645633 0.11765258 -0.014516485
-0.29417637 -0.08374174 -0.0030342017 -0.19148217 -0.08726474 0.068094924 0.23609434 0.14326221
-0.13696161 -0.23299398 0.11705564 -0.022437865 -0.171971 0.09615156 -0.269848 0.10940255
0.12790127 0.33520216 -0.06937786 -0.20221938 0.258235 -0.08937178 -0.29015148 -0.16296943
0.21531747 -0.19368012 0.048596703 -0.2754016 -0.10706178 -0.12523215 -0.11143566 -0.15664624
-0.18851604 0.07112104 0.1177122 0.027588543 0.09878137 -0.17607479 0.14941196 0.10749514
00000000: cae7 343e 4c0a 02be eb4d 9c3e 53e9 08be
00000010: b394 2b3e 3667 fa3d 4ad3 883e 9458 483e
00000020: a6cf 8ebc 24c3 f7bd 9b95 9e3d 6913 a53e
00000030: bc88 0cbd 669b 3e3e 9d9c 2ebd f710 aa3d
00000040: 2e3b 413e 89d4 603e 0f88 253d 9650 6b3d
00000050: 2a98 913d e1b9 7a3e f169 a03e 96f9 13bd
00000060: 4aea 743e c662 983e d47b 4bbe a0b4 8dbe
00000070: 19ed ca3d 98c4 5bbd 42de 503d 0331 023e
00000080: 5fef bd3d 3bf3 27be 4dfd 1dbe d327 a53d
00000090: 250f 2a3e e950 003e 1723 073e 5e44 923d
000000a0: 2b72 24be 59c8 0a3e 5d91 2f3e 35d8 fe3d
000000b0: 23e1 cc3c 1bb1 a6be 298e 99bb 7d73 59be
000000c0: c759 713e 875d 1f3e eca1 18bd f0c5 d63d
000000d0: 763a 8bbe d600 99be 3c80 4cbe 88cb fd3d
000000e0: b04d 253e 5d84 c2bd 209e a1bd 6fee 463d
000000f0: e8b7 323c 1bf1 553d 5897 6a3e f102 49be
00000100: 2672 aabe d1d8 db3d 5da5 803e 702e 6e3e
00000110: 5b18 53bd 2452 e1bd cb32 aebd ac47 6abe
00000120: 469d 80be 173c b7bc c8bc 41bd c73a 85bd
00000130: 4e08 26be 3d74 6dbe 4be1 223e 64a1 083d
00000140: 18a3 83bd 4858 7b3e 0702 fabb ca9e 9f3d
00000150: e279 823e e75e c13d 96d9 8abc 2fff 003e
00000160: e48a 133e 8fc3 7f3d 7dd2 95be daf4 123e
00000170: 7219 36be 977b fa3d dea1 acbd 1c52 d33d
00000180: 5fe3 553d 8490 0abe bfd8 1e3e 29a7 6abe
00000190: 9437 7fbe be99 823d c7c0 833e aaea 34bd
000001a0: 43a1 633e 78fa bfbd 313d ae3d cf33 31be
000001b0: ec98 a53c ce21 e0bd e6a1 24be f49c 31be
000001c0: f52f 163e 0e2f 3ebe aca7 46bd b882 3f3e
000001d0: 0ec5 893e 0d4e 9d3c 8a3f 86be 1c85 6f3e
000001e0: afc2 8a3e e1dc 4d3e 1538 01be 41d5 e7bd
000001f0: 426a 203e e05a 86bd 7c69 80be 82c9 023c
00000200: 06e8 75bc 0feb 9c3c 77df 33bb 5e53 83be
00000210: 0682 89be 1def 1bbe f882 35be ab7a ffbd
00000220: 93a8 84be e5e0 923d f437 1abe 0879 41be
00000230: 9d2a e6bd 5876 153e d3e7 6e3e 549a 573d
00000240: f6f7 a83e 43be d3bd 5d14 0b3e 242f 4e3e
00000250: b5bd df3d c688 343e a331 173d 6fa8 233a
00000260: 4f4a 043e f2be 9f3e 5613 da3d 7b0a 9bbc
00000270: c822 553b d13f 36be 5e54 80bd 1826 78be
00000280: a12b 2abd 3a1e 493e d95b a23e 639d 573d
00000290: 5887 c73d d360 8b3c 76aa 5fbe f012 903e
000002a0: 38cc 0e3d fc4f 28be 959d b1bd 7c51 d6bc
000002b0: 86f4 2f3d 6917 a03d d5c8 f23c 0c34 943e
000002c0: fa39 3ebe 7811 65be c2a3 6cbe 92f1 cb3d
000002d0: eba6 863e b04e 873e 4007 8a3c 5362 2d3c
000002e0: 0b09 433e f3da 253e 9303 60be caa2 6abd
000002f0: 1d37 85be aba2 963e f7a2 463e ce6e 9ebd
00000300: cc28 4abd 9af3 633c ac1b 7e3e 1882 2a3e
00000310: 377e 67be 7ce4 37bd ac7a e53d 6a3e 883e
00000320: d668 bcbd c16b 243e 81fa 133d c6a8 e6bd
00000330: 24df e43d 90f2 273d 3ecc 23be a925 ea3c
00000340: 00ba bb3c 4aaf 83bc 7143 aa3d 3644 17be
00000350: 223f d6bd 421a 88bd d6f3 f03d 8dd6 6dbc
00000360: 499e 96be ca80 abbd 75d9 46bb e713 44be
00000370: dbb7 b2bd 5a75 8b3d b7c2 713e 54b3 123e
00000380: aa3f 0cbe f995 6ebe deba ef3d 9dcf b7bc
00000390: 2a19 30be 1ceb c43d 8429 8abe 720e e03d
000003a0: 8df8 023e 9e9f ab3e fb15 8ebd 9912 4fbe
000003b0: 6137 843e 8d08 b7bd bc8e 94be 75e1 26be
000003c0: 2f7c 5c3e 1554 46be 560d 473d 7001 8dbe
000003d0: 3543 dbbd db3c 00be 6138 e4bd df67 20be
000003e0: 590a 41be e8a7 913d 1813 f13d 5e01 e23c
000003f0: e34d ca3d f34c 34be 73ff 183e 6926 dc3d

features.bias f4 [30]
0.041232824 -0.032796796 -0.0053813583 0.02444882 0.049168993 0.017925674 -0.005915276 0.037026677
0.012940502 0.026923774 0.027459048 0.041717283 0.0008606498 -0.010656013 0.044132177 0.03995861
0.0027940876 -0.0033978762 0.042340256 -0.022082243 0.022696642 -0.025968922 -0.02209773 0.02162623
0.025036968 0.05052038 -0.010157496 -0.014132386 -0.007981355 0.005426329
00000000: c0e3 283d ef55 06bd 1b56 b0bb e448 c83c
00000010: 6d65 493d ddd8 923c eed4 c1bb 49a9 173d
00000020: 6604 543c 3f8f dc3c ccf1 e03c bedf 2a3d
00000030: 3b9d 613a 8f96 2ebc f1c3 343d a4ab 233d
00000040: 031d 373b e7ae 5ebb fa6c 2d3d d2e5 b4bc
00000050: 4fee b93c c7bc d4bc 4c06 b5bc 7e29 b13c
00000060: 541a cd3c 75ee 4e3d a06b 26bc 868b 67bc
00000070: 3bc4 02bc 59cf b13b

hidden.0.weight f4 [24, 30]
0.2923896 -0.30505118 -0.118378714 -0.19602616 0.26043636 -0.3310499 0.11356452 0.060251426
0.22109509 0.041642647 0.047521304 0.31923386 -0.017959557 0.24076195 0.1957659 -0.10446497
-0.08600188 0.113489114 -0.11744026 0.092876926 -0.29043677 0.2116215 -0.25380886 0.09562854
-0.2993876 0.06701287 -0.06548077 -0.17971958 -0.02601036 0.06604783 -0.06461282 0.28662404
-0.30220827 0.24054039 -0.24391583 -0.114963345 -0.0012679148 -0.18175927 0.19909929 0.31281814
-0.09779744 -0.016898472 0.06562035 0.24856485 0.37394968 0.095223986 0.088215604 0.2801205
-0.16269028 0.23218212 -0.17913938 0.05118746 -0.33310273 -0.0519333 0.28800514 0.3216215
-0.07397693 -0.2042537 -0.014755399 0.21309611 0.06735134 -0.056970343 -0.16502145 0.220934
-0.19164507 -0.10707699 -0.02132987 0.33956775 0.25143707 0.21707727 -0.19838382 0.06998572
0.012025317 0.13565321 0.22009791 -0.29134217 -0.30213955 0.070269056 -0.3074681 0.257599
-0.22441937 -0.17408343 -0.02753831 0.15539564 0.25678495 0.08171437 0.25159994 0.17627671
0.36008412 -0.046470825 -0.10096543 -0.08444848 -0.071615845 -0.26614743 0.114169754 0.2519279
0.18734643 -0.19418117 0.31539297 -0.016531207 0.007390149 -0.2759922 -0.1299522 0.092406034
0.05310888 -0.22906741 0.29369837 0.12631501 0.1992573 -0.17785807 -0.121073455 0.092121676
-0.3264415 0.13730502 0.00060900627 0.22588938 0.24080989 0.05051058 0.18860362 0.02479843
0.3507167 -0.057215653 -0.18685928 -0.064744964 -0.27044886 -0.20533338 0.050647546 0.23992065
0.25968167 0.2751075 0.27376416 0.29099786 -0.2212914 -0.08276815 0.14124005 -0.09963879
-0.026853338 0.29173863 -0.048099022 -0.09627903 0.117044166 0.33343223 -0.11924918 -0.020138485
-0.2754127 0.01783014 0.05662133 0.22163731 -0.28947532 -0.23834923 0.29927424 -0.1189116
0.068284295 0.23179822 0.25463703 0.024025526 -0.38005787 -0.31321767 -0.30179468 0.021693459
-0.22900693 0.29100573 -0.32900253 -0.06105758 0.1763019 -0.065115124 0.26964518 0.07422486
0.28447688 0.013897984 0.13432972 -0.31728873 -0.09166557 0.17832042 -0.07962584 0.048402913
-0.15561914 0.04382211 -0.010737985 -0.23013371 -0.005044272 0.25254148 -0.2479405 0.06471248
0.18596457 0.31328127 -0.2970168 0.15912771 0.31111586 0.2174541 -0.2610495 -0.047943804
-0.029410824 -0.057525072 0.025735317 0.01833702 0.1645507 -0.25929484 -0.2302262 -0.009244083
-0.30606958 0.31892914 0.2292379 -0.15507741 0.22572356 -0.13947746 -0.011545905 -0.2759703
0.017681723 0.119853824 -0.15575343 0.17930649 0.050936427 0.17934962 0.32886252 -0.23191178
-0.22174798 0.23530136 -0.1040275 -0.26794633 0.02800823 -0.26350132 0.35233667 0.15122074
0.15238418 0.0113695 -0.2432464 -0.20154005 -0.0683253 0.10793611 0.29200527 -0.23703085
0.26379865 -0.11612093 0.00034362497 0.09023019 0.009788422 0.0127693955 0.33351603 -0.13779618
0.23300402 -0.08363795 -0.121574745 -0.050079893 -0.21897735 -0.29167068 -0.24393335 0.02941731
-0.0075183306 0.28532076 -0.16818066 -0.13268173 -0.010361332 0.076186664 -0.24447125 -0.24584898
00000000: 17b4 953e ab2f 9cbe 8a70 f2bd 15bb 48be
00000010: ea57 853e 5f7f a9be 8494 e83d 33ca 763d
00000020: c066 623e 7b91 2a3d b3a5 423d 9f72 a33e
00000030: ec1f 93bc 4d8a 763e db76 483e bbf1 d5bd
00000040: c121 b0bd fb6c e83d 8584 f0bd 4236 be3d
00000050: 21b4 94be 4eb3 583e 3cf3 81be e5d8 c33d
00000060: 5549 99be 0b3e 893d c81a 86bd 6908 38be
00000070: ae13 d5bc 1644 873d ba53 84bd 63c0 923e
00000080: 0bbb 9abe 3850 763e 12c5 79be e771 ebbd
00000090: 2930 a6ba 1a1f 3abe afe0 4b3e b329 a03e
000000a0: 064a c8bd aa6e 8abc f663 863d c987 7e3e
000000b0: 5576 bf3e cb04 c33d 62aa b43d f46b 8f3e
000000c0: 4898 26be 26c1 6d3e 5070 37be f1a9 513d
000000d0: 718c aabe 03b8 54bd 6975 933e 93ab a43e
000000e0: 3781 97bd e227 51be a1c0 71bc de35 5a3e
000000f0: 80ef 893d bc59 69bd 62fb 28be 863c 623e
00000100: 9b3e 44be 2e4b dbbd fbbb aebc d3db ad3e
00000110: 5cbc 803e 8149 5e3e 2125 4bbe ac54 8f3d
00000120: d605 453c ade8 0a3e 5961 613e cd2a 95be
00000130: 09b2 9abe 39e9 8f3d 756c 9dbe 04e4 833e
00000140: 31ce 65be ed42 32be 0698 e1bc 0920 1f3e
00000150: 5179 833e dd59 a73d b5d1 803e e281 343e
00000160: f25c b83e 3158 3ebd f7c6 cebd 53f3 acbd
00000170: 54ab 92bd 7a44 88be d5d1 e93d b2fc 803e
00000180: bed7 3f3e 6ed7 46be 307b a13e 746c 87bc
00000190: 1029 f23b da4e 8dbe 3112 05be 603f bd3d
000001a0: b288 593d a690 6abe a25f 963e b958 013e
000001b0: 1b0a 4c3e 6d20 36be 5cf5 f7bd 4aaa bc3d
000001c0: 5723 a7be b099 0c3e b8a5 1f3a 8c4f 673e
000001d0: de96 763e 2fe4 4e3d 4f21 413e 1426 cb3c
000001e0: 2491 b33e f65a 6abd 0a58 3fbe 0299 84bd
000001f0: 4678 8abe ea42 52be cd73 4f3d c2ad 753e
00000200: fff4 843e e4da 8c3e d12a 8c3e acfd 943e
00000210: 369a 62be 5982 a9bd 3ba1 103e 6c0f ccbd
00000220: 88fb dbbc c45e 953e 7b03 45bd f12d c5bd
00000230: dab4 ef3d a1b7 aa3e ea38 f4bd 77f9 a4bc
00000240: e502 8dbe 8410 923c c5eb 673d e4f4 623e
00000250: 1c36 94be d211 74be 793a 993e ed87 f3bd
00000260: a3d8 8b3d 835c 6d3e c95f 823e 2ed1 c43c
00000270: f296 c2be 115e a0be d584 9abe 7bb6 b13c
00000280: cb80 6abe b4fe 943e 0573 a8be 8317 7abd
00000290: 7c88 343e 145b 85bd ef0e 8a3e 3403 983d
000002a0: f4a6 913e 5fb4 633c bb8d 093e ab73 a2be
000002b0: 29bb bbbd a199 363e df12 a3bd 2242 463d
000002c0: a05a 1fbe d07e 333d 60ee 2fbc 2ca8 6bbe
000002d0: 6c4a a5bb 1e4d 813e 1de4 7dbe fa87 843d
000002e0: 7f6d 3e3e 6766 a03e 9612 98be 60f2 223e
000002f0: 944a 9f3e 4aac 5e3e 48a8 85be b960 44bd
00000300: f8ee f0bc 699f 6bbd dfd2 d23c 8537 963c
00000310: fb7f 283e 4bc2 84be 6bc0 6bbe 7f74 17bc
00000320: 27b5 9cbe ae4a a33e 57bd 6a3e 9dcc 1ebe
00000330: 1424 673e 2ed3 0ebe 092b 3dbc fb4b 8dbe
00000340: 43d9 903c ec75 f53d d47d 1fbe 1f9c 373e
00000350: b7a2 503d 6da7 373e ab60 a83e 487a 6dbe
00000360: e711 63be d7f2 703e 5f0c d5bd 4330 89be
00000370: 8471 e53c a5e9 86be 7965 b43e 9cd9 1a3e
00000380: 990a 1c3e 2447 3a3c 9615 79be 8460 4ebe
00000390: 23ee 8bbd 9b0d dd3d b781 953e 37b8 72be
000003a0: 9e10 873e cfd0 edbd 9028 b439 9bca b83d
000003b0: 9e5f 203c ba36 513c 9dc2 aa3e 711a 0dbe
000003c0: 9b98 6e3e 604a abbd 2efc f8bd 9320 4dbd
000003d0: 993b 60be dc55 95be aac9 79be 92fc f03c
000003e0: 545c f6bb 9015 923e 8d37 2cbe b8dd 07be
000003f0: 94c2 29bc c107 9c3d ac56 7abe d6bf 7bbe

hidden.0.bias f4 [24]
0.002741773 0.025531875 -0.019988237 -0.008610028 0.0508557 0.07097895 0.007436116 -0.027573083
-0.021094617 0.058448132 0.0036170771 0.039768025 -0.005312946 0.076880515 0.046849404 0.02094348
0.04293125 -0.020121587 -0.011979916 -0.033331763 -0.017471457 0.015086824 0.08402981 0.004562987
00000000: 51af 333b 3928 d13c 5fbe a3bc 1311 0dbc
00000010: 114e 503d 695d 913d aaaa f33b f2e0 e1bc
00000020: 9ece acbc 4f67 6f3d 7c0c 6d3b cce3 223d
00000030: 3918 aebb 8873 9d3d 29e5 3f3d a991 ab3c
00000040: aed8 2f3d 07d6 a4bc 6947 44bc e386 08bd
00000050: 4d20 8fbc ba2e 773c d217 ac3d 1c85 953b

hidden.3.weight f4 [16, 24]
-0.047677267 0.120516405 -0.34762633 0.32574224 -0.2653378 -0.41542816 -0.13835905 -0.13698117
0.1842983 0.23574167 0.03531641 0.018081075 -0.12656324 -0.20841385 0.35130364 0.3490364
0.11824654 0.19341314 -0.40124938 0.049420085 0.036747847 -0.4037611 0.054769184 -0.3004189
0.3268039 0.049618825 0.31002066 0.002796786 -0.30849403 0.0032435223 -0.3179292 -0.35764435
-0.050927047 0.025057267 0.030867096 0.26460418 -0.14711368 -0.27335712 -0.0056287656 0.015988452
-0.02988326 -0.3333112 -0.34344116 -0.2752331 0.09749972 0.0103951255 0.32783124 -0.09049925
-0.24337555 -0.085610345 0.35362116 -0.37393367 0.19271709 -0.14505948 0.31447035 0.2335692
0.1288043 0.050121598 -0.2233339 -0.28807688 0.16667762 -0.20831923 -0.28933904 -0.2167423
-0.017084723 0.1682776 0.15555435 -0.04520541 -0.21103944 -0.21198887 -0.3537901 0.031008637
0.08926213 -0.124097094 -0.058504708 0.3550093 -0.19062896 -0.040059134 0.23474243 -0.19793163
0.2564691 -0.1908037 0.16459975 -0.4028883 0.20295449 -0.18331288 0.3448496 -0.36261174
-0.1448573 0.119844675 0.33485067 0.010148737 0.27035007 -0.18694519 -0.37119755 0.18416265
0.19069599 -0.029212654 0.17858948 0.28702202 0.032004658 0.2760516 0.1410956 -0.11769595
-0.000682324 0.28883067 -0.30906945 0.07303571 0.34740895 -0.27046978 0.44631982 0.35700288
-0.24514984 0.15980084 0.16261558 0.21066563 0.22713013 -0.16129167 -0.1309013 0.17478575
-0.31489846 -0.04072604 -0.33352736 -0.38212663 -0.15433499 -0.40673795 -0.10945084 0.20286556
0.026696688 -0.038304873 0.14820364 0.19235279 -0.39176285 0.29819962 0.2732999 0.07389452
-0.22986066 -0.13775161 -0.1509483 -0.15107302 0.21072708 -0.37841132 -0.009082957 0.30036685
0.20599794 -0.3117178 0.17579551 -0.2979134 -0.35348743 0.3505567 -0.07165898 -0.4102662
-0.3468626 -0.013112155 -0.04320717 0.25438204 -0.14574541 0.14494306 0.07411924 0.18490167
-0.37363672 -0.2154867 -0.31848544 0.059615426 -0.3000662 -0.2618937 0.09201599 0.114056595
0.16005751 0.2992311 -0.36574608 -0.05873408 0.42248857 0.20598426 0.15798827 0.38792354
0.26870596 -0.30727717 -0.13613611 0.02692977 -0.120833285 0.39189586 -0.22119893 0.049507428
0.32437527 -0.35479024 -0.23141427 0.38780525 -0.3446203 0.34784466 0.25448805 -0.30368343
0.33478063 -0.03477737 0.022645168 0.32057855 0.02007928 0.13416198 -0.090333104 -0.37357634
0.15729693 0.17798105 -0.06961413 0.2672982 -0.14021605 0.26537246 -0.079265065 -0.25935397
0.0035511358 0.23357505 -0.22442982 0.085371315 0.348734 0.18883507 0.13560118 -0.26990646
0.2627983 0.26316103 0.29999566 -0.23438002 -0.30485845 -0.29139608 -0.25155792 -0.18340456
-0.07692805 0.19937664 -0.34728283 0.23992752 0.015287458 0.011195069 0.30008745 0.27356818
0.18999195 -0.36539698 -0.12416018 0.09338497 -0.37209406 -0.31897852 0.19954474 -0.1347076
0.09655965 0.13282207 0.33543873 -0.042272657 -0.3909858 0.04503183 -0.24085496 0.037527088
-0.1552663 -0.38317326 0.0176455 0.18468209 -0.22082597 0.12816091 -0.221656 -0.14214112
00000000: 3d49 43bd 4ed1 f63d 14fc b1be b0c7 a63e
00000010: 5bda 87be 00b3 d4be ffad 0dbe cb44 0cbe
00000020: b2b8 3c3e 4466 713e f1a7 103d c31e 943c
00000030: cb99 01be 716a 55be 12de b33e e6b4 b23e
00000040: 3e2b f23d 180e 463e 8f70 cdbe b76c 4a3d
00000050: e984 163d c6b9 cebe a755 603d 82d0 99be
00000060: d752 a73e 1c3d 4b3d 07bb 9e3e 484a 373b
00000070: eef2 9dbe 4691 543b 9ec7 a2be 291d b7be
00000080: e198 50bd e644 cd3c fedc fc3c 337a 873e
00000090: f8a4 16be 77f5 8bbe 8271 b8bb 37fa 823c
000000a0: bdcd f4bc c4a7 aabe 85d7 afbe 5aeb 8cbe
000000b0: efad c73d 5150 2a3c 7fd9 a73e ac57 b9bd
000000c0: 7137 79be 7a54 afbd d50d b53e 3c74 bfbe
000000d0: a157 453e 798a 14be 4202 a13e c42c 6f3e
000000e0: 46e5 033e 4e4c 4d3d a4b1 64be d07e 93be
000000f0: 8aad 2a3e a351 55be 3f24 94be b2f1 5dbe
00000100: 43f5 8bbc f750 2c3e a449 1f3e 4f29 39bd
00000110: b91a 58be 9c13 59be fa23 b5be d305 fe3c
00000120: 10cf b63d 9e26 febd a2a2 6fbd c7c3 b53e
00000130: 3d34 43be 0c15 24bd 5260 703e 97ae 4abe
00000140: eb4f 833e 0c62 43be d68c 283e 6047 cebe
00000150: 4dd3 4f3e 5fb6 3bbe 2090 b03e 3fa8 b9be
00000160: 7955 14be 2071 f53d 8c71 ab3e e346 263c
00000170: 536b 8a3e 8f6e 3fbe 9b0d bebe 2295 3c3e
00000180: cf45 433e 604f efbc 29e0 363e 8df4 923e
00000190: 5117 033d a356 8d3e 5d7b 103e 930a f1bd
000001a0: fddd 32ba 9de1 933e 5a3e 9ebe bf93 953d
000001b0: 96df b13e 047b 8abe 0884 e43e 15c9 b63e
000001c0: 8f08 7bbe d5a2 233e b384 263e bbb8 573e
000001d0: cd94 683e a529 25be fe0a 06be 09fb 323e
000001e0: 5f3a a1be 59d0 26bd 19c4 aabe 1aa6 c3be
000001f0: fe09 1ebe f53f d0be c327 e0bd fdbb 4f3e
00000200: 03b3 da3c 92e5 1cbd b2c2 173e 21f8 443e
00000210: 2495 c8be 9fad 983e f7ed 8b3e 0356 973d
00000220: 9860 6bbe c20e 0dbe 3192 1abe e3b2 1abe
00000230: d7c8 573e 21bf c1be afd0 14bc afc9 993e
00000240: 20f1 523e 7a99 9fbe bd03 343e 1b88 98be
00000250: 4efc b4be 2b7c b33e f1c1 92bd 690e d2be
00000260: fa97 b1be 5dd4 56bc 00fa 30bd 5d3e 823e
00000270: 493e 15be f46b 143e d4cb 973d dd56 3d3e
00000280: 504d bfbe 8ca8 5cbe 8610 a3be 4e2f 743d
00000290: 47a2 99be ee16 86be e172 bc3d 8196 e93d
000002a0: 1ee6 233e d234 993e 1243 bbbe 2693 70bd
000002b0: 6c50 d83e 8aed 523e adc7 213e ea9d c63e
000002c0: d493 893e 6f53 9dbe 4467 0bbe d29b dc3c
000002d0: 7177 f7bd 93a6 c83e f981 62be 4dc8 4a3d
000002e0: 8414 a63e 11a7 b5be ddf7 6cbe 698e c63e
000002f0: 1272 b0be b218 b23e 424c 823e 657c 9bbe
00000300: 5e68 ab3e b772 0ebd 5c82 b93c df22 a43e
00000310: 4d7d a43c c261 093e 9000 b9bd 6645 bfbe
00000320: 7212 213e aa40 363e da91 8ebd 4fdb 883e
00000330: cc94 0fbe e6de 873e b955 a2bd 0bca 84be
00000340: 2cba 683b 4c2e 6f3e eed0 65be 28d7 ae3d
00000350: 438d b23e fb5d 413e 09db 0a3e 2e31 8abe
00000360: 808d 863e 0bbd 863e 0899 993e 5101 70be
00000370: 6816 9cbe de31 95be 33cc 80be 68ce 3bbe
00000380: 748c 9dbd 6429 4c3e 0ecf b1be 8faf 753e
00000390: 3f78 7a3c 866b 373c 10a5 993e 2111 8c3e
000003a0: 408d 423e 5015 bbbe b147 febd 9f40 bf3d
000003b0: 1d83 bebe 2751 a3be 7555 4c3e caf0 09be
000003c0: 11c1 c53d 8202 083e a0be ab3e 1826 2dbd
000003d0: 4a2f c8be 4c73 383d afa2 76be 01b6 193d
000003e0: 21fe 1ebe 492f c4be 4c8d 903c 4d1d 3d3e
000003f0: 3420 62be 9d3c 033e caf9 62be 718d 11be

hidden.3.bias f4 [16]
-0.0340032 -0.013503769 -0.0214733 -0.021729793 0.053303923 -0.0007916731 -0.039769486 0.050935984
-0.024825754 -0.0050873375 -0.008922569 0.105906375 0.04270986 -0.0318776 0.018267265 0.031053886
00000000: f046 0bbd ea3e 5dbc c6e8 afbc ae02 b2bc
00000010: 3755 5a3d 4888 4fba 54e5 22bd 40a2 503d
00000020: 615f cbbc aeb3 a6bb f82f 12bc 71e5 d83d
00000030: 89f0 2e3d 1692 02bd 3ba5 953c b864 fe3c

hidden.6.weight f4 [8, 16]
0.14580396 0.35582843 0.44516888 0.0117866015 0.064001985 -0.3330337 -0.39447096 -0.016678942
-0.0547835 0.19779886 0.11301042 -0.2424493 0.0606477 -0.3157133 -0.03596883 0.4887871
-0.096430756 -0.47723025 -0.06137656 -0.2650935 0.39149594 0.28186262 -0.43622175 0.0037740709
-0.028510513 0.27290392 0.19478974 0.2868248 0.25145513 -0.214136 0.033575833 -0.06301922
-0.19800614 -0.5148104 0.05477019 0.2706666 -0.13619569 -0.008761015 0.32064083 -0.3868158
-0.38763633 -0.24238564 0.39539576 -0.15695363 0.302896 0.02269694 -0.3677547 -0.43877205
0.24005795 -0.013274227 0.08452316 0.2801904 -0.044075973 0.33096147 0.39634308 -0.05963661
0.37266982 0.35141218 0.06698804 -0.2666433 -0.19518122 0.21845295 0.42313167 -0.2400763
-0.36566272 -0.41326132 -0.0036523924 -0.07123347 0.14270832 0.2022236 0.23730795 0.12354869
0.15132163 -0.19741407 -0.41361573 -0.13247053 -0.41477865 0.13300866 0.07410398 0.43432197
0.439316 0.056407925 0.37373772 0.082177766 0.17957905 0.21463697 0.3066478 -0.35763696
-0.3536385 0.4665776 0.3429937 0.019124232 -0.25016764 -0.4162499 0.018734908 0.14536615
0.010748972 -0.236023 0.34165052 0.08276773 0.07583035 0.30747676 0.45112038 -0.37536207
0.3835122 0.3191846 -0.12256727 -0.13970476 0.22154777 -0.25256795 0.23828684 -0.38659564
0.17513129 0.2998462 -0.32338074 -0.20867491 0.16153507 -0.20036031 0.31573263 -0.036902335
-0.12830128 0.43695825 -0.15063484 -0.014225978 0.027205333 -0.4467765 0.47824356 0.4461665
00000000: a24d 153e 252f b63e 2ded e33e 971c 413c
00000010: 7913 833d 6583 aabe 19f8 c9be 47a2 88bc
00000020: aa64 60bd c98b 4a3e 0272 e73d a144 78be
00000030: b969 783d 2ca5 a1be 0d54 13bd 4e42 fa3e
00000040: 7d7d c5bd 8657 f4be fd65 7bbd 56ba 87be
00000050: 2872 c83e 4c50 903e 7558 dfbe 6756 773b
00000060: e18e e9bc 10ba 8b3e f676 473e b3da 923e
00000070: babe 803e 7846 5bbe d086 093d 3910 81bd
00000080: 1fc2 4abe 9dca 03bf b556 603d d094 8a3e
00000090: e276 0bbe 5c8a 0fbc 092b a43e b80c c6be
000000a0: 4578 c6be f133 78be 5071 ca3e 74b8 20be
000000b0: 2f15 9b3e efee b93c 584a bcbe bba6 e0be
000000c0: c0d1 753e 257c 59bc 7a1a ad3d 1e75 8f3e
000000d0: 0289 34bd c873 a93e 7bed ca3e 8545 74bd
000000e0: 94ce be3e 4cec b33e 0731 893d 7885 88be
000000f0: 96dd 47be 21b2 5f3e b7a4 d83e 90d6 75be
00000100: 2538 bbbe fd96 d3be fa5c 6fbb dbe2 91bd
00000110: 2122 123e b413 4f3e db00 733e 1807 fd3d
00000120: 0ff4 1a3e ea26 4abe 71c5 d3be 5ba6 07be
00000130: de5d d4be 6c33 083e d4c3 973d 735f de3e
00000140: 07ee e03e ff0b 673d 8d5a bf3e d14c a83d
00000150: 92e3 373e cbc9 5b3e f100 9d3e 311c b7be
00000160: 1b10 b5be 42e3 ee3e df9c af3e 6caa 9c3c
00000170: f915 80be b51e d5be f379 993c ddda 143e
00000180: 751c 303c 03b0 71be d1ec ae3e 2182 a93d
00000190: f14c 9b3d 986d 9d3e 40f9 e63e 752f c0be
000001a0: b65b c43e 2a6c a33e 8d04 fbbd c40e 0fbe
000001b0: 6bdd 623e 9650 81be 7701 743e ddef c5be
000001c0: 9e55 333e 7185 993e 2992 a5be e0ae 55be
000001d0: 7369 253e 412b 4dbe b5a7 a13e e726 17bd
000001e0: 6961 03be feb8 df3e 0540 1abe 1414 69bc
000001f0: b8dd de3c e4bf e4be 57dc f43e ef6f e43e

hidden.6.bias f4 [8]
0.12341213 0.09534231 -0.032919835 -0.028533567 0.063281454 -0.017323637 0.05827218 0.04729626
00000000: 80bf fc3d d442 c33d f3d6 06bd 3abf e9bc
00000010: b599 813d 4dea 8dbc cfae 6e3d b9b9 413d

fc.weight f4 [1, 8]
0.053504266 0.59327424 -0.5330417 -0.2890694 0.3724036 -0.37038696 0.08860715 0.7280594
00000000: 4a27 5b3d d2e0 173f 6c75 08bf e800 94be
00000010: afab be3e 5ca3 bdbe aa77 b53d 1a62 3a3f
