python_ml/model.onnx (onnx, 679045 bytes, 13 tensors)

features.weight f4 [60, 36]
000000 e4 d5 3b 3e f2 3d 2b be c0 b6 37 3e e4 55 95 bd
       0.18343312 -0.16722849 0.17940807 -0.07291773
000010 a6 39 51 3e 1f 80 84 3e 27 ba bf 3d 8b 12 84 3d
       0.20432147 0.25879 0.093616776 0.06448849
000020 a2 a3 fd 3d bd 20 65 3e 44 8e 7c be 43 38 cb 3a
       0.12384726 0.2237577 -0.24663645 0.0015504438
000030 63 cf 22 3e bf 4c 53 3e 0c 74 9b 3d 92 00 28 3c
       0.15899424 0.20634745 0.075904936 0.010254042
000040 55 25 42 3e b4 c1 81 3e 4e 45 6b be 2d d8 c6 bc
       0.18959554 0.25343096 -0.22975656 -0.024273003
000050 62 a4 2a 3e 22 c3 e6 bd 55 48 73 bd c5 c7 0f be
       0.1666427 -0.112676874 -0.059395153 -0.1404105
000060 4f 92 bf bd eb 28 59 3e 36 94 a2 3d 9a 4a 80 be
       -0.09354078 0.21207015 0.07938425 -0.25056916
000070 e9 d8 39 bb 13 85 20 be f9 be 29 3e dc ab 8c 3e
       -0.0028358048 -0.15675764 0.16576757 0.27474868
000080 9d a1 3e 3e bb 5d 60 be 4e 0b f4 bd 74 31 a2 bd
       0.18616338 -0.21910755 -0.11916219 -0.07919589
000090 74 25 1a be df cd d9 bd b7 51 fd bd 63 7e 2d be
       -0.1505335 -0.1063497 -0.123691015 -0.16942744
0000a0 5c 60 1e be 71 fd 0c 3e ca 60 17 3e 4e e8 49 be
       -0.15466446 0.13768555 0.14783016 -0.19717523
0000b0 18 5f 60 3e ad c4 71 3e 9f 70 dc bc 16 f6 c9 3d
       0.21911275 0.23610182 -0.02690917 0.0986139
0000c0 1d 44 20 3e 73 e6 66 3e a2 53 f9 3d 8c e2 35 be
       0.15650983 0.22548847 0.12174155 -0.17762202
0000d0 d1 7d 13 3e bf 22 6a be 84 b4 25 bc 4b d5 49 3e
       0.14403464 -0.22864817 -0.010113839 0.19710271
0000e0 f5 92 c7 3d 42 4a 73 3d 90 40 80 3e d4 9c d7 bd
       0.09744827 0.05939699 0.25049257 -0.105279595
0000f0 79 28 16 3e 7a 85 42 be 16 58 12 3d a6 5f ec 3d
       0.14663877 -0.1899623 0.035728537 0.11541681
000100 ad 3c 9c bd 36 86 bb bd a6 51 c7 bd 5b d4 14 be
       -0.076287605 -0.09156458 -0.0973237 -0.14534132
000110 16 e5 36 3e 40 f7 69 3e 72 3e 7c 3e ce e0 0b be
       0.17860827 0.22848225 0.24633196 -0.13659975
000120 da 35 81 be ff a2 21 be 5d 7f 6e 3d 2c 94 44 3e
       -0.25236398 -0.15784834 0.05822693 0.19197148
000130 ef 87 10 be 5c 78 e3 bd 54 6d da 3d 37 33 8c bd
       -0.14114355 -0.11106941 0.10665384 -0.06845706
000140 b6 5a 03 3e 95 0c 11 3e 88 12 66 3e dc c0 58 bd
       0.12827572 0.14164956 0.22468007 -0.0529183
000150 bf 1b 61 be 39 d2 a6 3d 5e 49 31 be 3f 07 38 bd
       -0.2198324 0.081455655 -0.17313144 -0.044928785
000160 62 7b e3 3d d2 4e d2 3d cd be 3f 3e 7a a4 6f bd
       0.11107518 0.1026894 0.18725128 -0.058506466
000170 14 b8 35 3d 4d db 5c bc d5 c9 73 be c0 bb 4f be
       0.044365004 -0.01348002 -0.23807462 -0.20286465
000180 fd 16 d4 bd 4c c6 78 3d 55 c3 c7 bc 8b 48 27 3e
       -0.10355947 0.060735986 -0.024385134 0.16336267
000190 e5 9e e5 3d 68 bc 72 be 71 57 69 3e 95 06 18 be
       0.11211947 -0.23704684 0.22787262 -0.14846261
0001a0 d8 b7 5a 3e 4f 76 b5 3c b3 e9 f4 bd 0b 0f 40 be
       0.21359193 0.02215114 -0.11958637 -0.18755738
0001b0 4a ed 18 3e 05 ba 8b 3c 97 d0 77 3e d0 c2 47 3d
       0.14934269 0.017056474 0.24200664 0.048769772
0001c0 3b 2d c8 3d e5 a4 12 3d 31 3b 5b 3e 05 24 67 3e
       0.09774252 0.035801787 0.21409298 0.22572334
0001d0 5e 0d 72 3e 27 df 48 3e 61 a9 fa bd 76 a7 56 3b
       0.23637912 0.19616376 -0.12239338 0.0032753623
0001e0 4a 73 3a 3e 2f bf 3e be 57 83 0c be d4 fd 59 be
       0.18208042 -0.18627618 -0.13721977 -0.21288234
0001f0 a5 5e ce 3a 0e 32 62 bc 00 c3 80 3e bd 98 a8 bd
       0.0015744759 -0.013805879 0.25148773 -0.082322575
000200 6e d5 66 be 33 c8 13 3e a4 d6 78 3e 05 f2 c9 bd
       -0.22542354 0.14431839 0.24300629 -0.09860615
000210 ae 80 59 3e f6 20 79 3e f1 53 15 be 6f 28 2c be
       0.21240494 0.2432898 -0.14582802 -0.16812299
000220 de b8 e1 3c 43 b8 e5 3d f8 52 f7 3d 43 be 09 bd
       0.027553972 0.11216786 0.12076372 -0.033628713
000230 bf 6a 57 be 71 59 df ba 98 ad 11 3e 64 15 92 3d
       -0.21036814 -0.0017040205 0.14226377 0.07132986
000240 fe 0a 2c 3d 93 8b e2 bd 2b f2 67 be a8 cf 84 3e
       0.04200267 -0.11061778 -0.22650973 0.2593968
000250 ba 13 68 3e 4d ac 8b 3e 5d 1c 14 3e 3e 4b 2b 3e
       0.22663775 0.27279893 0.14463945 0.16727921
000260 96 8a 21 bd 15 4e 32 be 4f 6f 3d 3d f9 1e cc 3c
       -0.039438806 -0.17412598 0.04624873 0.024917113
000270 a7 9f 45 3e f2 f8 31 3e a9 33 0e be c7 66 f9 bd
       0.19299184 0.17380121 -0.13886894 -0.12177806
000280 28 bd 0b 3e 3f 7c c5 3d cc e3 a6 bb b8 95 6a be
       0.13646376 0.09642839 -0.0050930735 -0.22908676
000290 d7 22 5a 3e 13 21 28 bd 78 99 20 3e 2a 64 06 be
       0.21302353 -0.041047167 0.15683544 -0.13124147
0002a0 07 7a ac 3c 40 c5 2c 3e a7 f8 ec 3d a1 ca 26 3e
       0.02105428 0.1687212 0.11570864 0.16288234
0002b0 7d f1 87 3e 7e 23 36 3d e6 2f 40 3e 90 c4 1f 3e
       0.26551428 0.04446744 0.18768272 0.15602326
0002c0 a2 cd 52 be af 42 3e bd 7a 1d 3b be da 8f 2f 3d
       -0.20586255 -0.046450313 -0.18272963 0.042861797
0002d0 98 43 62 be e4 e0 22 be 5d d3 ef 3d e7 69 7e be
       -0.22096097 -0.15906101 0.11710236 -0.24845086
0002e0 33 8b 33 3d f4 9f 3f 3e c0 34 78 be db de 3d be
       0.043833923 0.18713361 -0.24238873 -0.18542044
0002f0 df 3e 31 be 5e e5 75 3c df c7 14 3c 50 b6 35 bc
       -0.1730914 0.015008299 0.009080856 -0.01109083
000300 af b4 12 be 54 a3 51 be 95 cb ea 3c 7d 09 08 3e
       -0.14326738 -0.20472461 0.028661529 0.1328487
000310 d6 94 0d be 5f 39 e3 3d cc 7e c4 3d 40 20 10 3e
       -0.13826308 0.11094927 0.09594497 0.14074802
000320 b7 77 95 bd a5 3a d5 3d b2 21 ce bd 0f 21 49 be
       -0.072982244 0.10411576 -0.100650206 -0.19641517
000330 16 1d 44 be 27 e5 c4 3c 3e 83 8d 3d af 9a da 3c
       -0.1915172 0.02403505 0.06909798 0.026685087
000340 07 5b 1c bd dd f5 d2 bd 5a 70 8f bd 11 7c 1f 3e
       -0.038172748 -0.10300801 -0.07003851 0.15574671
000350 66 8c 33 3e 73 c0 3e 3e f5 b0 6f be 07 6b 8f 3c
       0.17534027 0.18628101 -0.23407348 0.01750709
000360 86 a2 f8 bb d0 4e 48 3e c1 97 ba 3d 0f 2c d4 bb
       -0.0075877337 0.19561315 0.09110976 -0.0064749788
000370 a8 3f a3 bd 0c b4 ff 3d 9d af 99 3d 49 f9 f7 bc
       -0.07971126 0.12485513 0.07504199 -0.030270236
000380 6f 02 59 be af e0 5d bd 9e 22 ef 3d 22 58 54 bd
       -0.21192335 -0.054169353 0.116765246 -0.051841862
000390 b3 3f 41 3e be 58 7e be 4a 12 da 3d 2d 79 3c 3e
       0.18871956 -0.2483854 0.106480196 0.184056
0003a0 e2 8e 66 bc 4a e7 4d be 8e 15 e7 3d b3 e6 90 3d
       -0.014072152 -0.20107761 0.11283408 0.070752524
0003b0 57 eb 3e 3e ca 0b 5e ba 6f 62 ea 3d 27 48 14 3e
       0.18644463 -0.00084703846 0.11444556 0.14480649
0003c0 8a a1 4a be 2c 16 33 be 00 1a af bc 30 9e a8 bd
       -0.19788185 -0.17488927 -0.021374702 -0.08233297
0003d0 4c e5 0e be bc c6 b7 bd d7 a7 d7 3c 4d 95 85 bd
       -0.13954657 -0.089734524 0.02632515 -0.065226175
0003e0 62 0d 17 be e4 09 b7 3b c8 3b 3e 3d 62 b4 71 3a
       -0.14751199 0.005585896 0.04644373 0.00092202995
0003f0 58 93 c7 3d 14 0c 9d 3d 32 85 14 3e 6a 01 6f be
       0.097449005 0.07668319 0.14503935 -0.23340383

features.bias f4 [60]
000000 a2 d9 d1 3c 75 73 37 3b cc d5 d6 39 62 29 c3 3c
       0.02561647 0.0027992402 0.00040976552 0.023823444
000010 c9 ee e8 3c 7d 27 f6 3a 7d f2 ef 3b 58 e2 a8 3c
       0.028434174 0.0018780079 0.007322608 0.020615742
000020 77 31 a3 3a 60 27 8a bb af 91 9f 3c 9c 9d 54 3c
       0.0012450655 -0.0042161196 0.019478647 0.01297703
000030 70 6a 91 3c 22 30 b0 ba f7 1b 17 3c 2b 19 ec 3b
       0.017750949 -0.0013442079 0.009222976 0.0072051487
000040 61 36 d5 3b f5 cc c8 3c 8f 96 d1 3b 5f b9 91 3b
       0.0065067266 0.024511794 0.006396122 0.004447147
000050 ab 04 d3 3b dd 59 96 3b 11 8c c4 3c 3e 26 ea 3a
       0.0064397654 0.0045883493 0.02399257 0.001786418
000060 90 51 50 bc 13 d6 98 bb 60 9d 8c 3c ae 19 4f 3c
       -0.0127147585 -0.0046641915 0.017164886 0.0126404
000070 bb fe 92 3c 43 bc cf 3c ed a6 83 3c 25 33 44 bc
       0.01794373 0.025358325 0.016070807 -0.011975084
000080 0f 58 36 3c a3 a9 19 bc 27 9b c3 bb 90 5c ad 39
       0.011129393 -0.009378823 -0.0059694233 0.00033066096
000090 4b 8b 72 3c b5 06 d1 bb 97 3d 70 bb 2b d1 a0 3b
       0.014803718 -0.0063789734 -0.0036657804 0.0049077473
0000a0 24 32 94 3c f4 f5 8f 3c 8e f4 97 3c 33 e7 d7 3c
       0.018090315 0.017573334 0.01854923 0.026355362
0000b0 43 3d 1f bb 7b fc c9 3b 98 a0 7e bb 16 70 bd ba
       -0.002429799 0.006164131 -0.0038853046 -0.001445296
0000c0 85 c1 93 3c 8e b1 cb 3c 2e a1 0a 3b e0 95 73 3c
       0.018036613 0.024864938 0.00211532 0.014867276
0000d0 d8 fd 8f ba 03 65 23 bc 40 0a d4 3c d1 1f 00 3d
       -0.0010985686 -0.009972814 0.025883794 0.031280342
0000e0 86 8b 14 bc 97 d4 83 3b ce c3 ef ba b8 d1 b8 3b
       -0.009066468 0.0040231454 -0.0018292607 0.005640235

hidden.0.weight f4 [100, 60]
000000 5d 05 11 3e fb f6 3c be 7d 33 46 be e9 70 43 3d
       0.14162202 -0.1845359 -0.19355579 0.0477151
000010 e0 78 10 be 55 39 a3 bd f8 f8 09 bd f5 5c d5 3d
       -0.1410861 -0.079699196 -0.0336847 0.10418121
000020 30 3b 9e bc e7 64 c2 3d c6 bc db 3c cf 76 ba bd
       -0.019315332 0.09491902 0.026823413 -0.09104692
000030 a4 e9 20 bc 77 6f 39 3d ee b9 2c be fc c7 62 bd
       -0.009821329 0.045272317 -0.16867802 -0.0553665
000040 29 fa 1c 3c 68 63 10 3e 4a 7a 59 bd 87 d9 e4 3d
       0.009581127 0.1410042 -0.05309514 0.111743025
000050 70 3e 8d 3d db 56 c9 bd f3 5d 8a 3d 3f 7c 2d 3e
       0.06896675 -0.098310195 0.06756201 0.16941927
000060 fe d6 1f 3e cb 5c 2e 3e 17 6b 2b bb 7b 40 10 be
       0.15609357 0.17027585 -0.002615636 -0.14087097
000070 63 44 da bd 01 15 28 3e 91 44 09 3e de 02 bb 3d
       -0.10657575 0.16414262 0.13405062 0.09131406
000080 7c 91 a4 bd a9 9d 10 3d 7a 58 ff bd 73 1f 26 3e
       -0.080355614 0.035306606 -0.124680474 0.16222934
000090 6d 1c f0 bd 64 49 12 3d 1c 41 22 3e 4f 71 9d bc
       -0.11724172 0.035714522 0.1584515 -0.019219069
0000a0 aa ae ae bd 44 33 43 bd 7b e9 35 be 77 3d 2a bd
       -0.08529408 -0.047656313 -0.17764847 -0.041562524
0000b0 b5 23 08 3e 4e 6a 75 3d 93 c9 19 3e 84 e5 11 3e
       0.13294871 0.059915833 0.150183 0.1424771
0000c0 f5 0e 12 be ad 7b ac bd d2 5f 1b 3e 43 b0 27 3e
       -0.14263518 -0.08422027 0.15173271 0.16375832
0000d0 86 06 ac bd 0d 60 e2 3c d3 9b 0c be e7 0d eb bd
       -0.08399682 0.027633691 -0.13731317 -0.11477261
0000e0 f7 76 3c 3d d0 7b 18 be 3b 1d 9e bd ce 5a 12 3c
       0.04601189 -0.1489098 -0.07720419 0.008932782
0000f0 f0 4b be ba bf 82 15 3e ac 4f 64 bd df a0 1a 3e
       -0.0014518481 0.14600657 -0.055740044 0.1510043
000100 88 39 e2 bd ed d8 27 3e 20 11 41 be dc bf bf bd
       -0.110461295 0.16391344 -0.18854189 -0.09362766
000110 87 3f 3a be f0 ec a3 3d 26 42 3d 3e a4 0b b7 bd
       -0.18188296 0.080041766 0.18482265 -0.08937767
000120 f3 b3 cf bc 79 e1 40 be 36 e9 51 bd b6 bd c9 bd
       -0.025354361 -0.18836011 -0.051247798 -0.098506376
000130 8a 39 bd 3d 2b 80 2a be af ee 05 3e 2b 25 40 3c
       0.0923949 -0.16650455 0.13079332 0.0117276115
000140 ac b1 27 3e ed ce 2e 3e d7 0b 16 3c c9 18 01 bd
       0.1637637 0.17071123 0.009158096 -0.031517778
000150 2b cb 40 be 35 68 2f be 88 5e a8 bd 70 0d 42 be
       -0.18827502 -0.17129596 -0.082211554 -0.18950438
000160 94 bc 13 3b c0 5e 40 3e 60 e3 f6 bc 1a 09 cd bd
       0.0022542821 0.18786144 -0.030137718 -0.100115016
000170 58 f2 c2 bd 5e 21 e0 3d 07 06 12 bd f7 8a c8 bd
       -0.0951888 0.10943864 -0.03565028 -0.097921304
000180 01 00 f9 bd 75 db cb bd 4d 66 8f 3d b8 a1 0a 3e
       -0.12158204 -0.099539675 0.07001934 0.13538253
000190 37 68 c0 3d 5c 9f 93 3d dc 99 48 3e 6c 0f af 3d
       0.093948774 0.0720813 0.19589943 0.08547863
0001a0 8d 02 0d be b7 9d 3c 3e f2 90 75 bd 4a 16 d9 bd
       -0.13770504 0.18419538 -0.059952684 -0.105999544
0001b0 3e da 0b bc 5b e8 33 3e a2 0e 94 bd d7 fc be bd
       -0.00853592 0.17569105 -0.072293535 -0.09325569
0001c0 c2 43 96 bd f1 1a 17 be 3d e6 48 be c4 1b d8 3d
       -0.073371425 -0.14756371 -0.19619079 0.10552171
0001d0 e0 27 b4 3d a2 01 26 3c a7 6e 8f bd 3a ad 35 3e
       0.08796668 0.010132225 -0.07003527 0.17741862
0001e0 0c 84 39 3e 23 66 49 be 73 41 f7 3d bb 30 91 bb
       0.18116778 -0.19667868 0.1207303 -0.004430858
0001f0 e3 7a f0 bd 36 4d 02 3e 1d 44 12 3e fc 16 64 bc
       -0.11742189 0.12724766 0.14283796 -0.0139214955
000200 66 c4 b7 3d dc d2 11 3e e2 5f c4 bc 7e b2 2c 3e
       0.08973007 0.14240593 -0.023971502 0.16864964
000210 80 f2 61 bc 8c 9c 5a 3d c6 d1 67 3c ad 9b 0f 3e
       -0.013790727 0.05337195 0.014149135 0.1402423
000220 86 79 d7 bd 5b 34 25 39 4e 1e b6 bc 87 9b 2e be
       -0.10521226 0.0001575513 -0.022231247 -0.17051516
000230 ea c5 06 be 6a fa 0e be 33 9f 19 3e 56 a3 08 3e
       -0.13161436 -0.13962713 0.15002136 0.13343558
000240 b5 be d7 3d c6 0b 8d bd f9 05 c0 3d 69 bd 1c 3e
       0.10534421 -0.06887011 0.09376139 0.15306629
000250 90 dd e1 3d 15 1b b8 3d d1 f6 2e be 9a 88 df 3d
       0.11028588 0.089895405 -0.1708634 0.109147266
000260 45 03 e7 3d 57 51 e7 bd 49 6d f5 3c e0 20 84 3d
       0.112799205 -0.11294811 0.029959338 0.06451583
000270 99 ed c4 bd bc f9 d6 bd b5 6f 2b 3d 86 00 18 3e
       -0.09615631 -0.10496852 0.04185458 0.1484395
000280 ff 10 a0 3c 0f f7 3e be 30 e5 ad 3c d5 46 b5 3d
       0.019539354 -0.18648933 0.02122745 0.08851401
000290 f0 2a c0 3d 34 47 91 bd 24 a4 8b 3d a5 6e 99 bd
       0.0938319 -0.07093659 0.06818417 -0.07491807
0002a0 ad 40 09 3b e1 a7 2c be 05 8b fc bd 99 b8 25 3e
       0.002094309 -0.16860916 -0.12331203 0.161837
0002b0 05 2b 4e 3e 5f 0c 32 bd 91 6b a8 3d cd 40 4d 3c
       0.20133598 -0.04346883 0.08223642 0.012527657
0002c0 56 3a bc 3d 3e b0 6c 3d 59 18 c3 3d 5c 4e 24 bd
       0.09190814 0.057785265 0.09526128 -0.04011379
0002d0 a3 68 94 3d 63 c8 14 bd f9 03 36 be 8e e4 2e bd
       0.0724652 -0.036323916 -0.17774953 -0.042698435
0002e0 ca 72 d3 bd 9d 43 4b be 7d 57 a1 3d b6 01 2e be
       -0.10324629 -0.19850011 0.07878015 -0.1699284
0002f0 2e 40 0b 3a 7b 1d 14 be 26 aa ac 3d bc f9 2a 3c
       0.0005311993 -0.14464371 0.08430891 0.010435518
000300 77 90 14 be da 7b 8b bd 29 40 9b 3d 71 23 1f be
       -0.14508234 -0.06810732 0.07580597 -0.15540864
000310 18 fb ba bd e5 f9 17 be a8 8b 6a bd 3b 83 17 3e
       -0.091299236 -0.14841421 -0.057262093 0.14796154
000320 db 4f 10 be 8f c5 e2 3c 4c f8 12 be 82 14 93 bd
       -0.14092962 0.027682094 -0.1435253 -0.07181646
000330 32 84 b6 3d 46 e1 01 be e5 1e 9a 3d a2 9b 3d 3e
       0.08911933 -0.12683591 0.07525424 0.185164
000340 20 66 f1 bc de 33 65 bd 04 f1 4d be d4 59 01 be
       -0.029467642 -0.055957668 -0.20111471 -0.12631923
000350 f5 d8 a2 bd 9f 61 13 be c2 73 d2 3d ed 78 0b 3d
       -0.079515375 -0.14392708 0.10275985 0.03405087
000360 53 75 24 3e 7c 4a f2 3d 96 f2 ef bd 29 8f 9b 3b
       0.1606038 0.11830613 -0.117161915 0.0047472906
000370 c4 b6 1e 3d e1 14 48 bc 04 56 26 3e 19 41 0a 3e
       0.038748518 -0.012212009 0.1624375 0.13501395
000380 b8 9f ed bd d4 53 26 be b4 8f 43 3d c9 a6 ce bd
       -0.116027296 -0.16242915 0.047744468 -0.100904055
000390 74 db ea 3d 3b 36 0e be 5d 9b 23 3e dd 9c 48 3d
       0.114676386 -0.13887875 0.15977235 0.04897772
0003a0 1d ad 27 bc d0 0b fd bd fc 1f 3c bd 0b db eb bc
       -0.0102341445 -0.12355769 -0.04592894 -0.028790971
0003b0 de 64 18 3e fe e5 ba 3d 55 6d ee 3d f0 08 72 bd
       0.14882228 0.09125899 0.11641947 -0.059090555
0003c0 9b be fe bd 3c d0 8f 3d 44 72 bd 3d 50 8f d6 bd
       -0.12438699 0.070221394 0.0925031 -0.104765534
0003d0 fa 92 96 bd c3 09 0d bd e4 46 c3 3c cc 54 33 3e
       -0.07352252 -0.034433138 0.023837514 0.17512816
0003e0 57 09 3c 3e d6 e5 83 3d 00 a9 2c be 48 e7 27 be
       0.18362938 0.06440322 -0.16861343 -0.1639682
0003f0 ef 6b 08 bd ac 55 34 3e b3 c5 89 bd ee 3c 3b be
       -0.03330606 0.17610806 -0.06727161 -0.18284962

hidden.0.bias f4 [100]
000000 1e df 2d b9 58 8a c4 3c cb 81 f3 39 c5 b2 e9 b9
       -0.00016581683 0.023991749 0.00046445275 -0.00044574417
000010 52 76 76 3b f6 f4 18 3c f2 9e be 3b 0c 4a ac 3c
       0.0037607145 0.009335747 0.0058172876 0.021031402
000020 5d b9 ea bb 7a 65 bc 3b d1 7b d4 3c 5d 69 25 3c
       -0.0071632103 0.0057494016 0.025937947 0.010095921
000030 29 67 d5 3c 78 c5 90 3b 98 50 9a 3b e2 3f 31 3c
       0.026050167 0.0044180714 0.0047093146 0.0108184535
000040 f6 58 3f 3c db 76 45 3c 42 c4 93 3c f9 c2 a4 bb
       0.011678925 0.012052263 0.018037919 -0.0050281254
000050 9e a6 c6 3c 85 56 50 ba d5 b9 75 3c 2b 92 48 3c
       0.024249371 -0.0007947463 0.014997919 0.01224188
000060 e3 e1 53 3b 2a 3e 3c 3c 0f c5 a3 3a 8d 72 86 3b
       0.0032330684 0.01148943 0.0012494641 0.004103011
000070 f2 ab b2 bb a1 0b 38 3c 98 2d e2 b7 c4 d6 6d ba
       -0.0054526264 0.011233241 -2.696253e-05 -0.0009072835
000080 6c 28 58 3c 87 07 aa bb 61 a0 1f bc 98 32 a1 3a
       0.013193231 -0.0051888856 -0.009742827 0.0012298403
000090 0e 73 34 3a f3 3b c2 3c 9b ad d8 39 35 12 39 bb
       0.00068835996 0.023710227 0.00041328077 -0.0028239612
0000a0 dc 72 45 3b 8a 7e 4e b9 d3 60 a3 3b 15 fd 69 3c
       0.0030128276 -0.0001969283 0.0049859076 0.014281531
0000b0 00 f1 a6 3b a8 07 04 3c ea af 0e 3c 16 62 c9 3a
       0.0050946474 0.008058466 0.008708933 0.0015364315
0000c0 69 e6 fd 3a 47 e3 0b 3c 06 1e 5d 3a b5 91 fd ba
       0.0019371036 0.008538074 0.0008434955 -0.0019345792
0000d0 61 83 12 bb 50 11 df ba d4 fd e8 3b 6c fd a0 3c
       -0.002235614 -0.0017018709 0.007110337 0.019652091
0000e0 ac 88 91 3c 43 bb f1 3c 80 09 79 3b 34 70 b5 3a
       0.017765366 0.029508239 0.0038000047 0.0013842643
0000f0 0d ae ee 3b c6 1f 0f 3c 86 fc 60 3b 6a 03 09 ba
       0.007283932 0.008735603 0.0034330203 -0.0005226644
000100 1b af f1 3b 7d 50 bc 3c 68 1f 4c 3a 3b 7f ff 3b
       0.0073756105 0.022987599 0.00077866623 0.0077971495
000110 7d 56 98 3a 0b ef 58 3b d2 d9 af 3c a3 09 c3 3c
       0.0011622455 0.0033101465 0.02146617 0.023808306
000120 d1 49 4c 3b 2a e7 82 ba af 2a b3 ba 3d fc 45 bb
       0.0031171928 -0.0009987105 -0.0013669337 -0.003021016
000130 65 d1 dd 3c b8 99 b4 3c 71 70 fd 3c a4 86 a0 3c
       0.027077386 0.022045955 0.030937405 0.019595452
000140 d2 7f ec 3c 45 d8 af 3a 8f 02 80 b8 1d 7f a8 3c
       0.028869543 0.0013415894 -6.103992e-05 0.020568425
000150 09 c8 03 3d dc 52 29 3c df 0a 9a 3c e0 c9 7f bb
       0.03217319 0.010334697 0.018804012 -0.003903024
000160 11 5e 89 bb 25 d8 0c 3b cf 19 12 bb 2e 11 e8 3b
       -0.004192122 0.0021491137 -0.0022293215 0.007082126
000170 20 fa af 3c 1f 60 be 3c 42 07 a8 3c d1 25 1a 3c
       0.021481574 0.023239193 0.020511273 0.00940843
000180 7d 4f cd 3b d7 f2 06 bb 30 d5 8f bb b6 09 38 3c
       0.0062655793 -0.0020591521 -0.0043894276 0.011232784

hidden.3.weight f4 [200, 100]
000000 df 27 cf 3d 28 86 83 3c ab 04 43 3c 1a af cb 3d
       0.10115027 0.016055182 0.011902968 0.09945507
000010 0a d9 46 3d f3 6f df bd 53 38 cc 3c 70 f7 e2 bc
       0.04854683 -0.109100245 0.024929201 -0.027705878
000020 dc 6f 45 3d b6 3c 9c 3d b2 73 cb 3d 34 dd 00 3e
       0.04820238 0.07628767 0.099341765 0.12584382
000030 25 82 fb 3d cf 4a cd bd f3 44 2c bc 64 45 a1 3d
       0.122806825 -0.10024034 -0.010514486 0.07874563
000040 4f 96 03 3e 9c da 0b be e6 f8 99 bd 71 0b b1 bd
       0.12850307 -0.13657612 -0.07518177 -0.086447604
000050 5e 47 83 3d 35 bc ee 3d 80 c7 1b bc 84 2e 8a bc
       0.064100966 0.116569914 -0.009508014 -0.016867884
000060 4d b3 11 be e8 03 02 be 18 6d b4 3d 2d 86 f0 bd
       -0.14228554 -0.12696803 0.088098705 -0.11744342
000070 3a 74 73 3d e0 88 c3 3d eb 04 e1 3d b9 f6 21 bd
       0.059437014 0.09547591 0.10987266 -0.039541934
000080 6f 60 08 be 9b 00 ac bd 56 a7 67 bd aa 7d 54 3d
       -0.13318036 -0.08398553 -0.05655607 0.051877655
000090 4d c4 df bd 48 80 1a 3d 7a c3 99 3c 5e cb cf 3d
       -0.10926113 0.037719995 0.018769968 0.10146211
0000a0 48 f7 0f 3c 35 1d 77 bd 78 23 a1 3c 2e c9 9f 3d
       0.008786984 -0.06033059 0.019670233 0.07802044
0000b0 cd 6d 02 bd ad 51 0b 3e 45 f4 6f 3d ec 0e ff bc
       -0.031842995 0.13605376 0.058582563 -0.031135045
0000c0 65 b4 8a 3d 87 4f 42 bd cd 35 61 3a 80 3f 36 bd
       0.06772689 -0.047439124 0.0008591086 -0.044494152
0000d0 ea aa 74 3d 2e b9 bd 3d 3e 41 93 3d 52 7b 0a bd
       0.05973331 0.09263836 0.07190178 -0.033809014
0000e0 a9 f3 0b be 70 ee 33 3d d3 f0 d5 bc 46 1f 89 bc
       -0.13667168 0.043928564 -0.02611581 -0.016738545
0000f0 81 28 e8 3d 28 3c e6 bd 68 fb 3f 3c c1 55 03 be
       0.113358505 -0.11241943 0.011717655 -0.12825681
000100 05 5e 78 3d 89 bc e8 bd 13 1a e6 3a 4a 27 73 bd
       0.06063654 -0.11364085 0.0017555378 -0.05936364
000110 f1 05 c8 3d 15 37 0e 3e 1f 55 e9 3d 70 2d d0 3d
       0.09766758 0.138882 0.11393189 0.101649165
000120 11 c0 90 3d 2f ad c6 3d 74 ca b3 3c c0 71 f5 bc
       0.07067884 0.09701001 0.021947123 -0.029961467
000130 5e 8e 9c 3d d3 5c b2 bc 19 21 dc 3d ca 7a 74 bd
       0.07644342 -0.021772778 0.107485004 -0.059687413
000140 8c 11 c5 3c 86 d6 b6 3b e5 03 54 bd 82 dd 21 3d
       0.024056219 0.0055797724 -0.051761527 0.039517887
000150 64 ac f4 3c f4 69 fa 3d 08 38 98 bc 01 1c 9d bd
       0.029867359 0.1222724 -0.018581405 -0.07671357
000160 20 6f a0 3d 19 f0 6d ba b7 ed ad bc 50 02 da 3d
       0.078336954 -0.000907661 -0.021231515 0.10644972
000170 a3 12 09 bd 9d 91 0d 3d a1 4e 18 bc 1c c2 0b be
       -0.03346504 0.034562696 -0.00929609 -0.13648266
000180 37 45 c7 3d 2e 02 95 3d 4e 4c a3 bb 6b c5 f7 bd
       0.097299986 0.07275806 -0.0049834615 -0.12098201
000190 73 55 b8 3d 5d ba 4d 3c 23 44 07 3d 5f ca 91 3d
       0.09000673 0.0125566395 0.033023965 0.07118677
0001a0 3f 2f c2 3c d0 15 44 3d ec a1 ef bb a5 3f f7 3d
       0.02370417 0.047872365 -0.0073130038 0.12072686
0001b0 21 25 b0 bd 44 92 04 3e e7 11 ac bd ea 43 ad 3d
       -0.08600832 0.12946421 -0.08401852 0.08460219
0001c0 45 7a d3 bc cd bb f7 3d 02 e0 5d 3d 88 b4 59 3d
       -0.025815139 0.12096367 0.05416871 0.053150684
0001d0 87 02 9a ba 32 c2 90 bd d2 d0 7f 3d 25 a7 15 bd
       -0.0011750021 -0.0706829 0.062455006 -0.036536355
0001e0 0a 37 27 bd 75 74 ea 3d aa 92 57 3d fb 0d a2 bd
       -0.040823974 0.11447994 0.052630104 -0.07912823
0001f0 f8 8e 16 3d d9 8b c3 bd 0c b7 aa bc a3 e8 7b bd
       0.03675744 -0.09548158 -0.020839237 -0.061501157
000200 35 9a b8 3d cf 9e 5f bc ed d1 0c be b1 e3 bb bd
       0.09013788 -0.013648703 -0.13751955 -0.09174288
000210 9c 2f 04 3e 7d 3a cd bd 6a 32 a9 bd 5b fb 9b bc
       0.12908787 -0.100209214 -0.08261569 -0.019040754
000220 bf 71 8c bb 18 8d f7 bd 8f 14 c7 3c f5 ee e2 bd
       -0.0042860205 -0.12087458 0.024301795 -0.11080734
000230 e3 14 f1 3d ca 53 d9 bd 9c 5d 9c 3b 7d 13 0b be
       0.11771562 -0.106116846 0.0047719013 -0.13581653
000240 7c f2 e9 bb fc 0c c9 bd 6b ae 06 3e c3 ef 14 be
       -0.007139502 -0.0981693 0.13152473 -0.14544587
000250 5e 6d e7 3c 29 5d f7 3d a0 ca 60 3d de 22 fa bd
       0.028250393 0.12078316 0.05488074 -0.12213682
000260 63 48 23 bb 1f cf f4 bd c3 ae 09 3c 00 af 15 3e
       -0.0024914972 -0.11953568 0.008403483 0.14617538
000270 48 45 0d be c4 b1 88 bd 9a 4c f1 bd ba b2 eb 3d
       -0.1379596 -0.06674531 -0.11782189 0.11508699
000280 56 3b b3 bd 97 4e 34 bc 22 3e 31 bd 5d 43 96 bd
       -0.08751552 -0.011005065 -0.043272145 -0.07337067
000290 c5 12 8a 3d c8 df 56 bd 48 5e 9c bc 95 24 a0 3c
       0.06741861 -0.05245951 -0.019087926 0.019548694
0002a0 63 0e e0 bb 8b 93 e8 bd 8d 08 08 3e 95 5f c0 3b
       -0.0068376525 -0.113562666 0.13284512 0.0058707693
0002b0 45 de db bd 75 b9 0e bd b9 d8 01 be e7 48 83 3d
       -0.10735754 -0.034844834 -0.1268033 0.064103894
0002c0 81 4a 50 3d 12 ad db bd 0a 71 e3 3d 4d b7 75 3b
       0.050852302 -0.1072637 0.11105545 0.003749329
0002d0 aa e5 ce 3d b0 48 d6 3d 8b f0 01 3e 0a f6 7e bd
       0.10102399 0.10463083 0.12689416 -0.06224636
0002e0 ef 96 75 3d ba c4 b0 bd d5 59 01 3e d6 a0 ac bc
       0.059958395 -0.086312726 0.12631924 -0.021072786
0002f0 36 1d 89 3d 50 b5 13 3d fe f8 f2 3d 5c d5 81 3d
       0.06695025 0.036061585 0.11863898 0.06339523
000300 4c 17 c2 bd 41 4a 06 3e 01 0e 89 bd 2b 4f a8 bd
       -0.094771 0.13114263 -0.06692124 -0.08218225
000310 27 cc 53 3d 27 94 8f bd 85 ed ad bc 40 4f 96 3d
       0.051708367 -0.0701068 -0.021231422 0.073393345
000320 e9 e6 ed 3d f8 52 05 be 8a 7d de bd 92 d9 0e be
       0.11616308 -0.13019931 -0.108637884 -0.13950184
000330 1d 43 af 3d 61 2c 93 3d be 0d 6b 3d 34 04 b6 bc
       0.08557723 0.07186199 0.057386152 -0.022218801
000340 40 99 31 3d 87 7b 62 bd 64 ec 69 3c cc 93 11 3e
       0.04335904 -0.055293586 0.014277551 0.14216536
000350 46 80 de bd 00 be c3 bd c4 b7 50 bd c9 f4 ea 3d
       -0.1086431 -0.09557724 -0.050956503 0.1147247
000360 c8 21 82 bd 60 c7 f5 bc 2a d3 e6 b9 0b 46 2b 3c
       -0.063540995 -0.030002296 -0.00044026348 0.010453711
000370 ec f4 80 3b 38 6f 8c 3d 02 15 13 3d 91 a2 0e be
       0.003935447 0.06857151 0.035908706 -0.13929202
000380 57 fb b0 3d 70 8b b6 3d d1 74 0a bd 83 bf 0c be
       0.08641689 0.08913314 -0.03380281 -0.13744931
000390 17 61 e6 bb 16 1e 6b 3d 5e bc 82 bd af 65 91 bd
       -0.007030617 0.05740174 -0.063835844 -0.07099473
0003a0 28 a0 9d 3d db 48 3b bd a2 23 84 bc e4 18 eb 3d
       0.07696563 -0.045723777 -0.016130272 0.11479357
0003b0 d8 a4 7f bd 34 98 83 bd 28 95 be bc b6 8e 1e bd
       -0.062413067 -0.06425515 -0.023264483 -0.03871032
0003c0 12 b6 42 bd c4 46 ea 3d 3e 7f 07 3e d0 67 e0 3c
       -0.047536917 0.11439279 0.13232133 0.027393252
0003d0 14 49 7d 3d 7b 7a f4 bd f9 b7 eb 3d 53 f0 8a 3d
       0.06183727 -0.11937424 0.115096994 0.067841195
0003e0 7b 87 a0 3d 6a 3e f0 3d 92 e2 28 bc e1 b2 0a be
       0.07838341 0.117306545 -0.010307925 -0.135448
0003f0 22 57 f8 bd bb 60 b0 3d f2 81 3c bc 80 07 66 3d
       -0.12125994 0.086122 -0.011505591 0.056159496

hidden.3.bias f4 [200]
000000 e6 c6 43 3c 9b bb bb 3b 7f 09 39 3c 49 42 8a 3b
       0.011949277 0.0057291514 0.011293768 0.0042193276
000010 ef 84 99 3b 5c 3f e2 38 c9 e8 ba 3b 89 04 b0 3b
       0.0046850364 0.000107883214 0.0057040197 0.0053716344
000020 f9 45 87 3c e1 a3 7c 3c ea e3 5f 3c e1 6e 8d 3b
       0.016512858 0.015419931 0.013665179 0.0043161963
000030 80 1f 85 3c 63 41 7c bb 22 02 b9 3c e1 97 d9 3b
       0.016250372 -0.0038491122 0.022584025 0.00664042
000040 93 bb ab 3b ed 1d 98 3a 55 9e e9 3b 35 2f b1 3b
       0.0052408664 0.0011605598 0.0071294704 0.005407239
000050 fa 43 a2 3a 33 f5 44 3b 5b 09 d7 3b d1 5d 81 3c
       0.0012379878 0.0030053377 0.0065623946 0.015791805
000060 c2 d5 b6 3b 83 a3 dd 3b fc 3e a2 ba ec be bf 3b
       0.005579681 0.006763877 -0.001237839 0.005851617
000070 bc 4c 00 3c 1c 3c 8a 37 c5 ae bc 3c 08 f7 ad 3c
       0.007830795 1.6478873e-05 0.023032555 0.021235958
000080 fb 33 83 3a 7f 8b fd 3c 0c 58 c1 3c 23 ac a0 3a
       0.0010009998 0.030950306 0.023601554 0.0012258332
000090 62 47 26 3a c4 1b 69 3c db 24 9d 3c c1 a6 94 3b
       0.00063430343 0.014227811 0.019182613 0.00453648
0000a0 8a 60 02 bb 08 78 14 3c fa a3 d2 3b 24 9d a1 3a
       -0.0019893968 0.009061821 0.006428239 0.0012330157
0000b0 e7 b2 8e 3c 73 6c 52 3b 90 b6 1a 3b ce c7 2b 3c
       0.017419292 0.0032108098 0.002360735 0.010484649
0000c0 23 b2 10 3c 34 17 3f 3c 1c 42 05 3c e0 8d 10 3c
       0.008831534 0.011663247 0.0081334375 0.008822888
0000d0 ff fe 43 3c a7 60 3b 3a 38 45 7a 3c 7d ed 36 3c
       0.011962651 0.0007147886 0.015275292 0.01116502
0000e0 9e 3a 07 3c 4e 90 ac 3b 3c b3 8a 3c 3d ca 10 3c
       0.0082537215 0.005266226 0.016931169 0.00883728
0000f0 38 ae 15 3c de 05 ce 3b 79 1b f6 bb a6 14 d9 b9
       0.009135775 0.0062873205 -0.007510599 -0.0004140485
000100 ce 55 02 3c 94 68 84 bc fb b3 01 3b ef 11 70 3c
       0.007955028 -0.016163148 0.0019791115 0.014652713
000110 7f 3f 03 3c e4 4a 93 3c 56 7f 38 ba fa db 81 bb
       0.008010744 0.017980047 -0.00070380175 -0.003962991
000120 13 6e 7b 3c ac b2 83 3b 8f 02 ff 3b ae b6 1f 3c
       0.015346068 0.004019102 0.0077822874 0.009748144
000130 9b ba 99 3c 0f e7 dd 3b 2b 76 10 3c 25 72 df 3a
       0.018765738 0.006771929 0.008817236 0.0017047568
000140 50 5a 87 3c 72 13 56 3c 7e 07 84 b9 78 c1 7f 3b
       0.016522557 0.01306616 -0.00025182584 0.0039025228
000150 41 30 36 3b c5 0b 66 3b 93 e4 13 3c 6a 51 4f 3b
       0.0027799758 0.003510223 0.009026664 0.003163422
000160 6c 1d 8e 3b 94 2b 78 3c 5e b8 d7 3b 34 bb b0 3c
       0.0043370035 0.015147109 0.0065832576 0.02157364
000170 0c 64 92 3b f1 c2 f9 3b bf 25 72 3b 5c d3 1d 3c
       0.004467493 0.007622116 0.0036948768 0.0096329115
000180 58 f2 db 3b 40 81 2f 3c 6f d0 6d 3c 20 d5 7a ba
       0.0067122392 0.010711968 0.0145150265 -0.0009568501
000190 6b 94 e3 3b 38 33 0e 3c 3f bc 18 3c 4e a6 d4 3b
       0.006945183 0.008679204 0.009322225 0.0064895516
0001a0 fa b3 fb 3b 39 9a 1c bb 13 a1 0d 3c 66 cb ec 3b
       0.007681367 -0.0023895635 0.00864436 0.0072263954
0001b0 2d aa c9 3c 8a 33 9b 3c b5 27 b8 3b ac 3c 9b 3b
       0.024617279 0.018945474 0.005619968 0.0047374573
0001c0 e8 1a 7a 3c c1 d1 29 3c 60 06 8f bb ad 3f 30 3c
       0.015265204 0.010364951 -0.0043647736 0.010757369
0001d0 ee 1a 9a 3c 38 0f 9c 3c 84 94 2d 3c 69 1f 9d 3c
       0.01881167 0.019050226 0.010594491 0.019180017
0001e0 a2 f2 9e 3c 7c af a9 ba 43 21 10 ba 24 d8 a4 3c
       0.019402806 -0.0012945975 -0.00054981204 0.020122595
0001f0 cb d6 9e 3b dd 1a 81 3a fc 5b 86 3c 9c e4 8e 3c
       0.0048473827 0.0009849925 0.016401283 0.017442994
000200 2c da 15 3c 3f 39 74 3c 0a 01 d8 3b 20 07 a3 3c
       0.0091462545 0.014906227 0.0065919207 0.019900858
000210 df e3 fc bb 00 89 5f 3b 30 3f 81 3c 75 c6 32 3c
       -0.007717594 0.0034108758 0.0157772 0.010911574
000220 23 69 41 3c 28 1c 01 3c 32 ea 01 3c d3 e4 6f 3c
       0.011804852 0.007880248 0.007929372 0.014641958
000230 2b f3 0c 3d c9 c1 cf 3c 32 fb e3 3c 22 ee c4 3b
       0.03441159 0.025360959 0.02782974 0.006009833
000240 4d 72 90 3c 76 d7 3e 3b 90 2d db 3a ef 5f 06 3c
       0.017632628 0.0029120124 0.0016721953 0.008201583
000250 7f 82 48 3c ba de e2 3a 5c d5 bd 3c 51 63 95 3b
       0.012238144 0.0017308809 0.023173027 0.0045589586
000260 02 02 a2 3a 6c ce 7b 3c c6 e5 05 3c 9e 17 a6 3b
       0.0012360218 0.015369039 0.008172458 0.0050687334
000270 cf 08 bb 3c cd c1 70 bb 36 90 da 3b 12 02 13 3c
       0.022831349 -0.0036736608 0.0066700233 0.008972662
000280 0c 9c ad 3c f1 3f b9 3b a4 ac 02 3c 28 90 5b 39
       0.021192573 0.0056533744 0.007975731 0.0002093917
000290 05 2f 4d bc 75 67 a3 bb 81 d6 3c 3c d6 eb 14 3c
       -0.012523417 -0.0049866983 0.011525751 0.009089431
0002a0 7c b2 e4 3b 01 da 81 3c 59 65 38 3c e9 71 3f 3c
       0.006979285 0.015851023 0.011254632 0.011684873
0002b0 a3 a5 6b 3c 49 6e 37 3c 08 3f 92 3c 3b 64 44 3c
       0.014382753 0.011195728 0.017852321 0.011986787
0002c0 6b ad 8f 3c c5 ff d1 3a c7 d2 a1 bb 13 3f 69 bb
       0.017538747 0.001602166 -0.0049384567 -0.0035590574
0002d0 18 4d 2a 39 b2 06 a3 3b 12 e5 59 3b 9a c5 32 3c
       0.00016241183 0.0049751634 0.0033248109 0.01091137
0002e0 6d 0b ad 3b 26 94 9a 3a 2f 09 da ba 57 99 02 3d
       0.005280903 0.0011793419 -0.0016634817 0.031884518
0002f0 78 c6 ba bb 8a 30 33 bb d3 1c 51 3c 95 4d 22 3c
       -0.005699929 -0.0027342164 0.01276322 0.009906192
000300 42 0d 5f 3c 4b 4c a5 3b a4 9e b3 3b 64 fb 15 ba
       0.013614001 0.005044495 0.005481558 -0.0005721359
000310 e3 ef c8 3c e3 ff d2 3b 5a 4b 48 3c a9 1f c2 3a
       0.02452845 0.0064391955 0.012224996 0.0014810461

hidden.6.weight f4 [300, 200]
000000 49 1e 80 3d 3a 9d 34 bd 6b ec 7b bd dd 69 c1 3d
       0.062557764 -0.044095255 -0.061504763 0.0944402
000010 09 87 55 bb 27 d4 4a 3c 78 34 68 bb 20 50 c2 bd
       -0.0032581708 0.012379683 -0.0035431664 -0.09487939
000020 c7 8e 40 3d e0 62 39 3d 81 73 05 bd 56 3f 40 3d
       0.047011163 0.04526031 -0.032580856 0.0469354
000030 8c 0c 37 bd 8b 3c a9 bd 05 7c 50 3d 02 13 c6 bb
       -0.0446897 -0.08263501 0.050899524 -0.0060447464
000040 7a fa af bd 20 a9 65 bd 88 23 85 3d 61 f7 85 bd
       -0.085926965 -0.056069493 0.06500918 -0.065413244
000050 c6 da c1 3d 58 cf a8 bd 7f 86 19 3d 22 36 2b 3d
       0.09465556 -0.08242673 0.03748178 0.041799672
000060 98 6b b8 3c e9 20 cd bd 29 b5 c5 3d e0 f5 9f 3d
       0.022512242 -0.10016043 0.09653694 0.07810569
000070 0c ad 6d bc 3b 5d e7 3c 7a c7 0f 3d 82 68 67 3c
       -0.01450659 0.028242698 0.035102345 0.014124038
000080 fc 2a e2 3d a8 28 d3 bc 9f d4 e1 3d 2f dc 87 bc
       0.11043355 -0.025776222 0.110268824 -0.016584484
000090 21 a2 c6 3d c3 5f a3 3d da ae 5f 3d e2 47 4a bc
       0.096988924 0.079772495 0.05461011 -0.01234624
0000a0 a1 a6 91 bd 82 82 c4 3d 39 eb 3e 3d 93 f5 cc 3c
       -0.0711186 0.09595205 0.046611045 0.025019443
0000b0 a1 97 e4 3d 8e 24 42 3d d6 b5 5f 3d a5 94 52 bd
       0.111617334 0.047398143 0.05461677 -0.05141129
0000c0 7b a2 a9 bd 7e 57 7f 3d a7 54 c5 3d e7 99 d0 3d
       -0.08282944 0.0623393 0.09635287 0.101856045
0000d0 70 f8 1d bd cd 66 24 3c e6 ab 98 3d 30 c8 ac 3d
       -0.038567007 0.010034275 0.07454662 0.0843662
0000e0 2f 4b cd bd 99 9f 78 bd fa c4 52 3d a9 99 92 3d
       -0.10024106 -0.06069908 0.051457383 0.071582146
0000f0 7d fa b7 3d 0f 86 28 3b c1 7c 29 3d c4 6f 7b bd
       0.08983324 0.002571467 0.04137874 -0.061385885
000100 ff 19 a1 bd 1e 30 fc 3b 54 f7 2f 3d 1d 05 8c 3d
       -0.078662865 0.0076961657 0.04296048 0.06836913
000110 67 ef f2 3d e0 4d da 3d ab c3 c0 3d 37 9e 86 bd
       0.118620686 0.10659385 0.09412321 -0.06573146
000120 1e 0c dd bd a6 c7 4d bd 7d 3d d3 3d bc 86 6c bd
       -0.10793327 -0.050239228 0.10314462 -0.05774568
000130 87 0f c7 3c e9 db af bc c7 7e 78 3d 3d af a9 3d
       0.024299396 -0.021467166 0.06066778 0.08285377
000140 84 66 9e 3b 0c 90 24 bd cf ef 6c 3d fd 5c 8a 3d
       0.004833998 -0.040176436 0.057845887 0.06756017
000150 3a 93 aa bc 93 a8 d2 3d 51 24 81 bd 9f d2 bd 3c
       -0.020822156 0.10286059 -0.06305755 0.023171721
000160 13 1a 87 bd 01 43 01 bc 1b 47 4f 3d 46 01 c2 3d
       -0.0659677 -0.00788951 0.05060492 0.09472899
000170 09 4d e1 3d 53 fe 02 bc 1e bb e5 3d 13 66 a5 bc
       0.110010214 -0.007995206 0.112173304 -0.020190274
000180 1a 0a ff bc 39 b1 d0 3d 16 ad e0 3d 1d f0 bf 3d
       -0.031132746 0.101900525 0.109705135 0.0937197
000190 42 a9 a4 bd e5 1b 7a bd 05 7d 89 bd 77 22 12 bd
       -0.08040096 -0.06106176 -0.06713299 -0.0356774
0001a0 25 25 46 3d 3c a4 be bd c3 f7 3f 3c 2a 25 fc bc
       0.048375268 -0.09308669 0.011716786 -0.03077944
0001b0 50 b1 c0 3d 43 7c 83 3d 9a 26 64 bd 52 c4 4c 3d
       0.0940882 0.064201854 -0.055700876 0.049991913
0001c0 0c d5 34 3d 64 93 55 3d 03 ac 70 3d d3 17 bd 3c
       0.04414849 0.052142516 0.058757793 0.02308265
0001d0 62 08 b1 3d 1c 64 43 bd ab 7c 2b bd 1f be cc 3c
       0.08644177 -0.047702894 -0.04186694 0.024993
0001e0 9b fd 97 3d fa 59 29 3c 89 39 71 bd 4c 55 b4 3d
       0.07421418 0.0103363935 -0.05889276 0.088053316
0001f0 03 de 85 bd f4 f9 45 3b fb 47 95 bc c5 e6 02 3d
       -0.06536486 0.0030208798 -0.0182228 0.03195836
000200 24 b0 d6 bd 27 45 cd bd 10 4d 80 3c 8f 04 b7 bd
       -0.10482815 -0.100229554 0.015661746 -0.08936416
000210 52 d8 49 3d 54 86 d2 3c 49 5b 7c bd 94 f3 a1 3d
       0.049278565 0.025698818 -0.061610494 0.07907787
000220 83 c7 db bc 80 ca 63 bd d8 98 fe 3c 23 e4 ef 3c
       -0.026828533 -0.05561304 0.031078741 0.029283589
000230 60 30 50 bd 78 01 32 3d 68 a9 ca 3c 01 b3 7f bd
       -0.050827384 0.043458432 0.024738982 -0.06242657
000240 e9 ec 60 bc f6 22 3b bd 13 28 01 bd e7 39 16 3d
       -0.013728359 -0.04568764 -0.03153236 0.036676314
000250 3d e8 2e 3b bf 29 04 bc 10 13 07 bb d9 0c 89 3b
       0.0026688718 -0.008066594 -0.0020610727 0.0041824398
000260 4a e9 eb 3c cd 60 c5 bd 8f 34 a7 3d 03 7d 6d bd
       0.028797764 -0.09637604 0.08164322 -0.05798055
000270 96 b4 41 bd 9c 44 79 3d c4 9e 56 bc b4 3c b8 3c
       -0.04729136 0.060856447 -0.013099376 0.022489883
000280 37 65 e4 bc 56 fe 06 3d 01 55 a0 3d 6e 5a 38 3d
       -0.027880294 0.032957397 0.07828713 0.045008115
000290 78 d9 b2 bd 5e a3 aa 3d d2 4c cf 3d 27 5e 38 3b
       -0.08732885 0.08331941 0.10122074 0.002813229
0002a0 4e 0b d4 3d 38 b3 9f 3d 12 2c 5c bd e7 cf 00 3d
       0.10353719 0.07797855 -0.053752966 0.03144827
0002b0 66 0a de bc 51 c8 94 3d 8c 5d ae 3c 02 37 9c bd
       -0.027104568 0.0726477 0.021284841 -0.076276794
0002c0 b4 ad d2 bc a5 52 49 bd 81 33 87 3d b8 17 f8 3c
       -0.025717594 -0.04915108 0.066016205 0.030284747
0002d0 e9 af 36 3d d3 4c ce bc b3 87 3f 3c bb 81 b4 bc
       0.044601355 -0.025183117 0.011690068 -0.022034517
0002e0 8a 66 97 bd 0b 79 49 3d c8 99 a3 bc 31 e7 cf 3d
       -0.07392605 0.0491877 -0.01997079 0.10151518
0002f0 41 5b 63 bd c0 f7 ae bd 4a 4d 52 3c af 18 af bd
       -0.05550695 -0.08543348 0.01283581 -0.0854963
000300 df 61 85 3d b0 ea c5 3d b3 32 e3 3d 45 8d 59 3c
       0.06512808 0.09663904 0.110936545 0.01327831
000310 dd db 75 3c 49 5d d4 bc a5 1a 05 bd 3f 24 27 3c
       0.015006033 -0.025923388 -0.032496113 0.010201513
000320 f5 07 db 3d 2c c8 ef 3b fe 3d 3f bc a4 b8 81 3c
       0.10694877 0.0073175635 -0.011672495 0.015835114
000330 46 54 e9 bc 34 27 c9 38 00 2b cc 3d 4b 88 ad bd
       -0.028482568 9.591729e-05 0.09969139 -0.084732614
000340 e6 db 19 3c 48 42 8a bd 0b b4 07 3d 46 c7 b7 3c
       0.009390807 -0.067509234 0.033130687 0.022433888
000350 4f e1 84 bd 36 f1 8a bd 26 79 bd 3d 1b 21 27 3d
       -0.06488287 -0.067842886 0.09251623 0.040803056
000360 c5 91 c0 3c c9 9e 24 3d c9 af ae 3d 45 ba a5 bd
       0.023507008 0.04019049 0.08529622 -0.08092169
000370 74 6f 16 bd e3 2c a5 3d 73 bb 83 bd 69 bd a1 bd
       -0.036727384 0.08065202 -0.064322375 -0.07897455
000380 b9 5a e7 bd a0 35 6e bd 79 05 6b 3d a2 3e de 3b
       -0.11296601 -0.05815661 0.057378266 0.0067823688
000390 f5 75 4c 3d b1 58 a9 3d 69 09 c3 bd 82 5b c8 3c
       0.04991718 0.0826887 -0.09523279 0.024457697
0003a0 97 c8 79 bd b4 ec ab 3d 89 5a 09 bb ca 4e c8 b9
       -0.060982313 0.08394757 -0.0020958504 -0.00038205675
0003b0 7b f6 90 3d 64 41 8f bd 95 4f 96 3c 36 cb 80 3d
       0.070782624 -0.06994894 0.018348495 0.062887594
0003c0 c8 47 61 3d 58 44 34 bd 91 93 ca 3d 8c ea b3 bc
       0.055000097 -0.04401049 0.09891427 -0.021962427
0003d0 57 24 d1 3d e8 67 88 3c 3e 2a 6b 3d 75 9b 84 3d
       0.102120094 0.016651109 0.057413332 0.064749636
0003e0 2f 77 a0 bb 2d 96 92 3c f9 60 72 3c 36 aa af bd
       -0.0048970203 0.017893875 0.014793628 -0.08577387
0003f0 94 0a dc ba f5 64 34 bc 5f 85 1f 3d 34 bb d9 bc
       -0.001678782 -0.011010398 0.038945552 -0.026578523

hidden.6.bias f4 [300]
000000 dc 6a 2b 3d 17 25 2a 3c 84 19 36 3a ee 3d 43 3c
       0.041849956 0.0103848195 0.0006946551 0.011916621
000010 7f 41 41 bb 80 04 76 b6 8c ec 37 3c 58 1c 40 bb
       -0.0029488502 -3.6659476e-06 0.011225831 -0.002931377
000020 ad e6 97 3c 2f 40 a2 3c e1 a0 24 bb 93 aa ff bb
       0.018542612 0.019805996 -0.0025120305 -0.0078023165
000030 c3 9b 8e 3c 32 d7 51 3b 1d 7c 1a 3b f1 d0 84 3c
       0.017408257 0.0032019136 0.0023572512 0.016212912
000040 f7 1d c1 3b bf fa 1a 3d de c1 a3 ba 6a a0 c5 3a
       0.0058934647 0.037836786 -0.001249369 0.0015077714
000050 b8 4f b0 3a 79 b7 28 3c 60 47 85 3c 1c 0f ce 3c
       0.0013451492 0.01029765 0.016269386 0.02515369
000060 20 e7 da 3b 14 b0 49 3c 40 fe 28 3b 93 cd 38 3c
       0.0066803843 0.012310047 0.002578631 0.011279481
000070 ec 3a 34 bb 36 b2 73 3c f3 c7 09 3c 43 c0 30 3b
       -0.002750094 0.014874032 0.008409488 0.0026970066
000080 94 ab 99 3c 49 c3 6c 3c eb ef fb 3b 04 2b dd 3c
       0.018758573 0.0144508565 0.0076885126 0.02699805
000090 78 4b 2f 3b d7 d4 0f 3c 4a 80 51 3b fb d9 8c 3c
       0.0026747864 0.008778772 0.0031967335 0.017193785
0000a0 40 a1 54 3c 38 a4 63 bb ac 2d 97 3c 2b 54 4d 3b
       0.012977898 -0.0034735333 0.018454395 0.0031330686
0000b0 ea 64 95 bb d9 40 25 3c 96 8b 2f 3c ff 4e d9 3c
       -0.004559149 0.010086262 0.010714432 0.026526926
0000c0 84 64 37 3c 9b 2b e4 3c f9 46 47 3b 8a 93 65 3c
       0.011193398 0.027852824 0.0030407293 0.014012227
0000d0 6a db d2 3b 16 f5 64 3b f7 ab ea 3c 18 3d d4 3c
       0.0064348476 0.0034936122 0.028646452 0.025908038
0000e0 39 5d 97 3c 55 4d 29 3c 6a dd 5a 3c 02 6a ba 3c
       0.01847707 0.010333379 0.013358453 0.022755627
0000f0 40 c0 41 3c 5a 27 f1 3b 92 89 51 3b 43 a4 4c 3c
       0.011825621 0.0073594274 0.0031972867 0.012490335
000100 c1 95 0d 3b 84 7b 8d 3c 27 80 78 ba 72 99 09 3c
       0.0021604153 0.01727081 -0.00094795454 0.008398401
000110 dd 9c 87 3c 79 f8 ae bb 4f 61 68 3c b7 51 1a 3a
       0.01655429 -0.005339679 0.014183356 0.000588681
000120 9d e4 a3 3a 9d cb 94 3c 12 7c f7 3c 65 d1 83 3c
       0.0012504045 0.018163497 0.030210529 0.016091058
000130 eb ae ba bb 91 43 c4 ba 5d dd 7d 3c 6e 30 b3 3c
       -0.0056971214 -0.001497375 0.015494672 0.021873679
000140 cf 21 61 3c b4 09 ac bb e0 c6 8b 3c 5a 5d e7 3b
       0.013740971 -0.00525018 0.017062604 0.007060689
000150 aa f7 90 3c e4 71 c0 ba 13 96 3e bb 65 89 2c 3c
       0.01769622 -0.001468238 -0.002908115 0.010530804
000160 a6 19 b4 3b fb 8e 3d 3c ab 2f 22 3c 93 e7 e7 b9
       0.0054962216 0.011569734 0.00989906 -0.0004423229
000170 cd cd 37 3a 02 2c 06 3b 03 26 9f 3c 59 2f 94 3b
       0.00070115627 0.0020473008 0.019427305 0.004522246
000180 8e 71 62 3a fd 96 3b 3b 10 da b6 3c 2b 8a 8e 3c
       0.0008638137 0.0028623932 0.022320777 0.017399868
000190 8f d3 94 3c c7 d8 80 3c 94 33 73 3c 69 71 36 3c
       0.018167285 0.015728367 0.01484384 0.0111354375
0001a0 e1 32 ae 3c ae 49 a4 3c 49 5a 2b 3c 4d d8 39 3c
       0.021264495 0.020054664 0.010458537 0.011343074
0001b0 95 e8 89 3c 15 37 6f 3c fb 20 d4 3b 0b 3e d7 3b
       0.016834537 0.014600535 0.006473658 0.0065686754
0001c0 9f d3 27 3c 1e ff ab 3c 26 4b 89 3a 2e bf f4 3b
       0.0102433255 0.020995673 0.0010474666 0.0074690795
0001d0 dd 3e cc 39 a1 e2 3c bb c6 ba d0 3c b4 ac 9c 3c
       0.0003895675 -0.0028821605 0.025479686 0.01912532
0001e0 8d 0f 85 3c 42 0c 71 3c 3a 5b 9c 3b 31 00 aa 3c
       0.016242767 0.014712395 0.0047716172 0.020752044
0001f0 c8 33 fe bb d4 cc 8e 3b 38 85 b6 38 b3 4f 11 bc
       -0.0077576376 0.0043579135 8.70325e-05 -0.008869099
000200 3b 72 be 3c 71 30 43 3c 0e b9 20 3b b2 53 87 ba
       0.023247829 0.011913405 0.0024524364 -0.0010324626
000210 74 c8 40 bb 30 46 0e 3c a6 6f bb 3c 6e 00 10 3c
       -0.0029416354 0.008683726 0.022880387 0.008789165
000220 64 ab 54 3c 39 05 a3 3c d1 27 0f 3c fe f8 a4 3c
       0.012980316 0.019899951 0.00873752 0.02013826
000230 2d 9e 96 3c be 06 94 b9 35 f1 97 3b f0 9c 2e 3c
       0.018385971 -0.00028233783 0.0046369084 0.010657534
000240 7a 3e 2c 3c 9b e1 81 3c a6 5b 94 3c 4a bc 81 3c
       0.010512942 0.015854647 0.018110108 0.015836854
000250 d6 0a 46 3c f2 66 3a 39 38 0f c4 3c e5 43 89 3b
       0.012087544 0.00017776692 0.023933038 0.004189002
000260 c4 28 40 ba 72 1a 06 3a ce 1e 80 3c 08 c0 c5 39
       -0.00073302933 0.0005115635 0.015639689 0.00037717842
000270 7a 54 23 3b 1d b1 c6 3c 85 a0 b9 ba d4 34 2d bb
       0.0024922178 0.024254376 -0.0014162218 -0.0026429193
000280 51 64 9f 3b 56 9e 84 3c 45 31 88 3c b8 d2 36 ba
       0.0048642536 0.016188782 0.016625056 -0.00069741486
000290 de 50 00 b9 b6 e3 79 3c c9 fb 64 3c f3 7d 2a 3c
       -0.00012237157 0.015252044 0.013976046 0.010406005
0002a0 85 5e ad 3b 06 37 78 3c 6b 56 e7 bb c1 b6 84 3c
       0.0052908086 0.015149837 -0.0070598624 0.016200425
0002b0 64 a3 de 3c 37 5a dc 3b b8 c8 c2 3b 7b 58 77 bb
       0.02717752 0.0067246216 0.0059443377 -0.0037741947
0002c0 17 ea 27 3c 0b d7 b1 3c 71 67 04 bb 48 98 b3 3b
       0.010248682 0.021708986 -0.0020203257 0.0054808
0002d0 e3 54 3b 3b 12 2d 2e 3c 6a 01 d1 3b 06 71 5d 3b
       0.0028584532 0.010630863 0.0063783424 0.003378929
0002e0 68 a8 97 3a 7d 2f a5 3c ea f6 c1 3a 1d cb 41 3c
       0.0011570575 0.020164246 0.0014798318 0.011828211
0002f0 72 43 e2 3b 63 10 67 3c 7b cd 04 3d 73 c2 b7 3b
       0.0069050128 0.014103028 0.032422524 0.005607897
000300 82 fd 3d 3b 40 7b 7d 3c b8 fd d0 3a fd f9 a8 3c
       0.0028990214 0.01547128 0.0015944755 0.020627016
000310 ff 69 83 3b c4 0f de bb fe 23 38 3c 8d 9f 1e 3c
       0.0040104385 -0.0067767818 0.01123905 0.009681595
000320 8e 02 13 3c d3 ff bf 3a f9 f0 76 3a fe 0e 61 3b
       0.008972777 0.0014648385 0.0009420063 0.0034341211
000330 fc 23 ab 3c e8 98 38 3c 63 3d 65 3b 91 75 a7 3c
       0.020891182 0.011266924 0.0034979216 0.020441802
000340 bb 21 57 3c 81 89 ae 3c 60 ef 9c 3a db d9 bb 3c
       0.013130601 0.021305801 0.0011973195 0.02293103
000350 3b b0 0f 3c af a6 9f 3b d5 ee 41 3c 0d d9 f8 3b
       0.008770044 0.004872165 0.011836727 0.007594234
000360 f4 66 02 3d ec 26 64 3b 6d b4 17 3d db 26 bb 3c
       0.031836465 0.0034813238 0.0370373 0.022845676
000370 1b 9d 46 bc 9c 8d ba 3b 08 8b e6 ba 9d 98 bb 3c
       -0.012122418 0.0056931507 -0.0017589042 0.02289992
000380 c2 aa 4b 3c 1f f0 dd bb e5 54 e6 ba 43 dc b5 3c
       0.012430849 -0.0067730094 -0.0017572908 0.022199756
000390 dc a4 6f 3c 7d 48 c8 3c 92 7a 7f 3b 8b a4 ba 3c
       0.014626708 0.024448628 0.003898297 0.022783538
0003a0 f1 81 4a 3c 95 cd b3 3c ee cf a9 3c 93 49 ec 3b
       0.012360082 0.021948615 0.020729031 0.007210919
0003b0 b1 69 93 37 b4 d6 15 3c d8 01 50 3b b3 a0 66 3b
       1.7572982e-05 0.0091454275 0.003173938 0.0035191
0003c0 7a b1 6e b9 e0 90 a4 3c 36 a6 85 3b 92 c4 66 3c
       -0.00022763564 0.020088613 0.004078652 0.014084952
0003d0 0d 31 06 3c 35 b5 b5 3c 8f bf bb 3c 47 ea d1 3c
       0.008190406 0.022181133 0.02291849 0.025624407
0003e0 74 ab 55 3c 53 ca 21 3c e2 84 7a 3c a7 7b 71 3c
       0.013041366 0.009874898 0.015290471 0.014738954
0003f0 05 96 8e 3b 3d c6 9f 3b c9 e2 68 3b 15 bf 26 3c
       0.00435138 0.0048759268 0.0035535565 0.010177393
